node {
  name: "Placeholder"
  op: "Placeholder"
  device: "/job:ps/task:2"
  attr {
    key: "_output_shapes"
    value {
      list {
        shape {
          dim {
            size: -1
          }
          dim {
            size: 784
          }
        }
      }
    }
  }
  attr {
    key: "dtype"
    value {
      type: DT_FLOAT
    }
  }
  attr {
    key: "shape"
    value {
      shape {
        dim {
          size: -1
        }
        dim {
          size: 784
        }
      }
    }
  }
}
node {
  name: "Placeholder_1"
  op: "Placeholder"
  device: "/job:ps/task:2"
  attr {
    key: "_output_shapes"
    value {
      list {
        shape {
          dim {
            size: -1
          }
          dim {
            size: 10
          }
        }
      }
    }
  }
  attr {
    key: "dtype"
    value {
      type: DT_FLOAT
    }
  }
  attr {
    key: "shape"
    value {
      shape {
        dim {
          size: -1
        }
        dim {
          size: 10
        }
      }
    }
  }
}
node {
  name: "ps_2/truncated_normal/shape"
  op: "Const"
  device: "/job:ps/task:2"
  attr {
    key: "_output_shapes"
    value {
      list {
        shape {
          dim {
            size: 4
          }
        }
      }
    }
  }
  attr {
    key: "dtype"
    value {
      type: DT_INT32
    }
  }
  attr {
    key: "value"
    value {
      tensor {
        dtype: DT_INT32
        tensor_shape {
          dim {
            size: 4
          }
        }
        tensor_content: "\005\000\000\000\005\000\000\000\001\000\000\000 \000\000\000"
      }
    }
  }
}
node {
  name: "ps_2/truncated_normal/mean"
  op: "Const"
  device: "/job:ps/task:2"
  attr {
    key: "_output_shapes"
    value {
      list {
        shape {
        }
      }
    }
  }
  attr {
    key: "dtype"
    value {
      type: DT_FLOAT
    }
  }
  attr {
    key: "value"
    value {
      tensor {
        dtype: DT_FLOAT
        tensor_shape {
        }
        float_val: 0.0
      }
    }
  }
}
node {
  name: "ps_2/truncated_normal/stddev"
  op: "Const"
  device: "/job:ps/task:2"
  attr {
    key: "_output_shapes"
    value {
      list {
        shape {
        }
      }
    }
  }
  attr {
    key: "dtype"
    value {
      type: DT_FLOAT
    }
  }
  attr {
    key: "value"
    value {
      tensor {
        dtype: DT_FLOAT
        tensor_shape {
        }
        float_val: 0.10000000149011612
      }
    }
  }
}
node {
  name: "ps_2/truncated_normal/TruncatedNormal"
  op: "TruncatedNormal"
  input: "ps_2/truncated_normal/shape"
  device: "/job:ps/task:2"
  attr {
    key: "T"
    value {
      type: DT_INT32
    }
  }
  attr {
    key: "_output_shapes"
    value {
      list {
        shape {
          dim {
            size: 5
          }
          dim {
            size: 5
          }
          dim {
            size: 1
          }
          dim {
            size: 32
          }
        }
      }
    }
  }
  attr {
    key: "dtype"
    value {
      type: DT_FLOAT
    }
  }
  attr {
    key: "seed"
    value {
      i: 2
    }
  }
  attr {
    key: "seed2"
    value {
      i: 5
    }
  }
}
node {
  name: "ps_2/truncated_normal/mul"
  op: "Mul"
  input: "ps_2/truncated_normal/TruncatedNormal"
  input: "ps_2/truncated_normal/stddev"
  device: "/job:ps/task:2"
  attr {
    key: "T"
    value {
      type: DT_FLOAT
    }
  }
  attr {
    key: "_output_shapes"
    value {
      list {
        shape {
          dim {
            size: 5
          }
          dim {
            size: 5
          }
          dim {
            size: 1
          }
          dim {
            size: 32
          }
        }
      }
    }
  }
}
node {
  name: "ps_2/truncated_normal"
  op: "Add"
  input: "ps_2/truncated_normal/mul"
  input: "ps_2/truncated_normal/mean"
  device: "/job:ps/task:2"
  attr {
    key: "T"
    value {
      type: DT_FLOAT
    }
  }
  attr {
    key: "_output_shapes"
    value {
      list {
        shape {
          dim {
            size: 5
          }
          dim {
            size: 5
          }
          dim {
            size: 1
          }
          dim {
            size: 32
          }
        }
      }
    }
  }
}
node {
  name: "ps_2/Variable"
  op: "VariableV2"
  device: "/job:ps/task:2"
  attr {
    key: "_output_shapes"
    value {
      list {
        shape {
          dim {
            size: 5
          }
          dim {
            size: 5
          }
          dim {
            size: 1
          }
          dim {
            size: 32
          }
        }
      }
    }
  }
  attr {
    key: "container"
    value {
      s: ""
    }
  }
  attr {
    key: "dtype"
    value {
      type: DT_FLOAT
    }
  }
  attr {
    key: "shape"
    value {
      shape {
        dim {
          size: 5
        }
        dim {
          size: 5
        }
        dim {
          size: 1
        }
        dim {
          size: 32
        }
      }
    }
  }
  attr {
    key: "shared_name"
    value {
      s: ""
    }
  }
}
node {
  name: "ps_2/Variable/Assign"
  op: "Assign"
  input: "ps_2/Variable"
  input: "ps_2/truncated_normal"
  device: "/job:ps/task:2"
  attr {
    key: "T"
    value {
      type: DT_FLOAT
    }
  }
  attr {
    key: "_class"
    value {
      list {
        s: "loc:@ps_2/Variable"
      }
    }
  }
  attr {
    key: "_output_shapes"
    value {
      list {
        shape {
          dim {
            size: 5
          }
          dim {
            size: 5
          }
          dim {
            size: 1
          }
          dim {
            size: 32
          }
        }
      }
    }
  }
  attr {
    key: "use_locking"
    value {
      b: true
    }
  }
  attr {
    key: "validate_shape"
    value {
      b: true
    }
  }
}
node {
  name: "ps_2/Variable/read"
  op: "Identity"
  input: "ps_2/Variable"
  device: "/job:ps/task:2"
  attr {
    key: "T"
    value {
      type: DT_FLOAT
    }
  }
  attr {
    key: "_class"
    value {
      list {
        s: "loc:@ps_2/Variable"
      }
    }
  }
  attr {
    key: "_output_shapes"
    value {
      list {
        shape {
          dim {
            size: 5
          }
          dim {
            size: 5
          }
          dim {
            size: 1
          }
          dim {
            size: 32
          }
        }
      }
    }
  }
}
node {
  name: "ps_2/Const"
  op: "Const"
  device: "/job:ps/task:2"
  attr {
    key: "_output_shapes"
    value {
      list {
        shape {
          dim {
            size: 32
          }
        }
      }
    }
  }
  attr {
    key: "dtype"
    value {
      type: DT_FLOAT
    }
  }
  attr {
    key: "value"
    value {
      tensor {
        dtype: DT_FLOAT
        tensor_shape {
          dim {
            size: 32
          }
        }
        float_val: 0.10000000149011612
      }
    }
  }
}
node {
  name: "ps_2/Variable_1"
  op: "VariableV2"
  device: "/job:ps/task:2"
  attr {
    key: "_output_shapes"
    value {
      list {
        shape {
          dim {
            size: 32
          }
        }
      }
    }
  }
  attr {
    key: "container"
    value {
      s: ""
    }
  }
  attr {
    key: "dtype"
    value {
      type: DT_FLOAT
    }
  }
  attr {
    key: "shape"
    value {
      shape {
        dim {
          size: 32
        }
      }
    }
  }
  attr {
    key: "shared_name"
    value {
      s: ""
    }
  }
}
node {
  name: "ps_2/Variable_1/Assign"
  op: "Assign"
  input: "ps_2/Variable_1"
  input: "ps_2/Const"
  device: "/job:ps/task:2"
  attr {
    key: "T"
    value {
      type: DT_FLOAT
    }
  }
  attr {
    key: "_class"
    value {
      list {
        s: "loc:@ps_2/Variable_1"
      }
    }
  }
  attr {
    key: "_output_shapes"
    value {
      list {
        shape {
          dim {
            size: 32
          }
        }
      }
    }
  }
  attr {
    key: "use_locking"
    value {
      b: true
    }
  }
  attr {
    key: "validate_shape"
    value {
      b: true
    }
  }
}
node {
  name: "ps_2/Variable_1/read"
  op: "Identity"
  input: "ps_2/Variable_1"
  device: "/job:ps/task:2"
  attr {
    key: "T"
    value {
      type: DT_FLOAT
    }
  }
  attr {
    key: "_class"
    value {
      list {
        s: "loc:@ps_2/Variable_1"
      }
    }
  }
  attr {
    key: "_output_shapes"
    value {
      list {
        shape {
          dim {
            size: 32
          }
        }
      }
    }
  }
}
node {
  name: "ps_2/Reshape/shape"
  op: "Const"
  device: "/job:ps/task:2"
  attr {
    key: "_output_shapes"
    value {
      list {
        shape {
          dim {
            size: 4
          }
        }
      }
    }
  }
  attr {
    key: "dtype"
    value {
      type: DT_INT32
    }
  }
  attr {
    key: "value"
    value {
      tensor {
        dtype: DT_INT32
        tensor_shape {
          dim {
            size: 4
          }
        }
        tensor_content: "\377\377\377\377\034\000\000\000\034\000\000\000\001\000\000\000"
      }
    }
  }
}
node {
  name: "ps_2/Reshape"
  op: "Reshape"
  input: "Placeholder"
  input: "ps_2/Reshape/shape"
  device: "/job:ps/task:2"
  attr {
    key: "T"
    value {
      type: DT_FLOAT
    }
  }
  attr {
    key: "Tshape"
    value {
      type: DT_INT32
    }
  }
  attr {
    key: "_output_shapes"
    value {
      list {
        shape {
          dim {
            size: -1
          }
          dim {
            size: 28
          }
          dim {
            size: 28
          }
          dim {
            size: 1
          }
        }
      }
    }
  }
}
node {
  name: "ps_2/Conv2D"
  op: "Conv2D"
  input: "ps_2/Reshape"
  input: "ps_2/Variable/read"
  device: "/job:ps/task:2"
  attr {
    key: "T"
    value {
      type: DT_FLOAT
    }
  }
  attr {
    key: "_output_shapes"
    value {
      list {
        shape {
          dim {
            size: -1
          }
          dim {
            size: 28
          }
          dim {
            size: 28
          }
          dim {
            size: 32
          }
        }
      }
    }
  }
  attr {
    key: "data_format"
    value {
      s: "NHWC"
    }
  }
  attr {
    key: "padding"
    value {
      s: "SAME"
    }
  }
  attr {
    key: "strides"
    value {
      list {
        i: 1
        i: 1
        i: 1
        i: 1
      }
    }
  }
  attr {
    key: "use_cudnn_on_gpu"
    value {
      b: true
    }
  }
}
node {
  name: "ps_2/add"
  op: "Add"
  input: "ps_2/Conv2D"
  input: "ps_2/Variable_1/read"
  device: "/job:ps/task:2"
  attr {
    key: "T"
    value {
      type: DT_FLOAT
    }
  }
  attr {
    key: "_output_shapes"
    value {
      list {
        shape {
          dim {
            size: -1
          }
          dim {
            size: 28
          }
          dim {
            size: 28
          }
          dim {
            size: 32
          }
        }
      }
    }
  }
}
node {
  name: "ps_2/Relu"
  op: "Relu"
  input: "ps_2/add"
  device: "/job:ps/task:2"
  attr {
    key: "T"
    value {
      type: DT_FLOAT
    }
  }
  attr {
    key: "_output_shapes"
    value {
      list {
        shape {
          dim {
            size: -1
          }
          dim {
            size: 28
          }
          dim {
            size: 28
          }
          dim {
            size: 32
          }
        }
      }
    }
  }
}
node {
  name: "ps_2/MaxPool"
  op: "MaxPool"
  input: "ps_2/Relu"
  device: "/job:ps/task:2"
  attr {
    key: "T"
    value {
      type: DT_FLOAT
    }
  }
  attr {
    key: "_output_shapes"
    value {
      list {
        shape {
          dim {
            size: -1
          }
          dim {
            size: 14
          }
          dim {
            size: 14
          }
          dim {
            size: 32
          }
        }
      }
    }
  }
  attr {
    key: "data_format"
    value {
      s: "NHWC"
    }
  }
  attr {
    key: "ksize"
    value {
      list {
        i: 1
        i: 2
        i: 2
        i: 1
      }
    }
  }
  attr {
    key: "padding"
    value {
      s: "SAME"
    }
  }
  attr {
    key: "strides"
    value {
      list {
        i: 1
        i: 2
        i: 2
        i: 1
      }
    }
  }
}
node {
  name: "ps_2/truncated_normal_1/shape"
  op: "Const"
  device: "/job:ps/task:2"
  attr {
    key: "_output_shapes"
    value {
      list {
        shape {
          dim {
            size: 4
          }
        }
      }
    }
  }
  attr {
    key: "dtype"
    value {
      type: DT_INT32
    }
  }
  attr {
    key: "value"
    value {
      tensor {
        dtype: DT_INT32
        tensor_shape {
          dim {
            size: 4
          }
        }
        tensor_content: "\005\000\000\000\005\000\000\000 \000\000\000@\000\000\000"
      }
    }
  }
}
node {
  name: "ps_2/truncated_normal_1/mean"
  op: "Const"
  device: "/job:ps/task:2"
  attr {
    key: "_output_shapes"
    value {
      list {
        shape {
        }
      }
    }
  }
  attr {
    key: "dtype"
    value {
      type: DT_FLOAT
    }
  }
  attr {
    key: "value"
    value {
      tensor {
        dtype: DT_FLOAT
        tensor_shape {
        }
        float_val: 0.0
      }
    }
  }
}
node {
  name: "ps_2/truncated_normal_1/stddev"
  op: "Const"
  device: "/job:ps/task:2"
  attr {
    key: "_output_shapes"
    value {
      list {
        shape {
        }
      }
    }
  }
  attr {
    key: "dtype"
    value {
      type: DT_FLOAT
    }
  }
  attr {
    key: "value"
    value {
      tensor {
        dtype: DT_FLOAT
        tensor_shape {
        }
        float_val: 0.10000000149011612
      }
    }
  }
}
node {
  name: "ps_2/truncated_normal_1/TruncatedNormal"
  op: "TruncatedNormal"
  input: "ps_2/truncated_normal_1/shape"
  device: "/job:ps/task:2"
  attr {
    key: "T"
    value {
      type: DT_INT32
    }
  }
  attr {
    key: "_output_shapes"
    value {
      list {
        shape {
          dim {
            size: 5
          }
          dim {
            size: 5
          }
          dim {
            size: 32
          }
          dim {
            size: 64
          }
        }
      }
    }
  }
  attr {
    key: "dtype"
    value {
      type: DT_FLOAT
    }
  }
  attr {
    key: "seed"
    value {
      i: 2
    }
  }
  attr {
    key: "seed2"
    value {
      i: 24
    }
  }
}
node {
  name: "ps_2/truncated_normal_1/mul"
  op: "Mul"
  input: "ps_2/truncated_normal_1/TruncatedNormal"
  input: "ps_2/truncated_normal_1/stddev"
  device: "/job:ps/task:2"
  attr {
    key: "T"
    value {
      type: DT_FLOAT
    }
  }
  attr {
    key: "_output_shapes"
    value {
      list {
        shape {
          dim {
            size: 5
          }
          dim {
            size: 5
          }
          dim {
            size: 32
          }
          dim {
            size: 64
          }
        }
      }
    }
  }
}
node {
  name: "ps_2/truncated_normal_1"
  op: "Add"
  input: "ps_2/truncated_normal_1/mul"
  input: "ps_2/truncated_normal_1/mean"
  device: "/job:ps/task:2"
  attr {
    key: "T"
    value {
      type: DT_FLOAT
    }
  }
  attr {
    key: "_output_shapes"
    value {
      list {
        shape {
          dim {
            size: 5
          }
          dim {
            size: 5
          }
          dim {
            size: 32
          }
          dim {
            size: 64
          }
        }
      }
    }
  }
}
node {
  name: "ps_2/Variable_2"
  op: "VariableV2"
  device: "/job:ps/task:2"
  attr {
    key: "_output_shapes"
    value {
      list {
        shape {
          dim {
            size: 5
          }
          dim {
            size: 5
          }
          dim {
            size: 32
          }
          dim {
            size: 64
          }
        }
      }
    }
  }
  attr {
    key: "container"
    value {
      s: ""
    }
  }
  attr {
    key: "dtype"
    value {
      type: DT_FLOAT
    }
  }
  attr {
    key: "shape"
    value {
      shape {
        dim {
          size: 5
        }
        dim {
          size: 5
        }
        dim {
          size: 32
        }
        dim {
          size: 64
        }
      }
    }
  }
  attr {
    key: "shared_name"
    value {
      s: ""
    }
  }
}
node {
  name: "ps_2/Variable_2/Assign"
  op: "Assign"
  input: "ps_2/Variable_2"
  input: "ps_2/truncated_normal_1"
  device: "/job:ps/task:2"
  attr {
    key: "T"
    value {
      type: DT_FLOAT
    }
  }
  attr {
    key: "_class"
    value {
      list {
        s: "loc:@ps_2/Variable_2"
      }
    }
  }
  attr {
    key: "_output_shapes"
    value {
      list {
        shape {
          dim {
            size: 5
          }
          dim {
            size: 5
          }
          dim {
            size: 32
          }
          dim {
            size: 64
          }
        }
      }
    }
  }
  attr {
    key: "use_locking"
    value {
      b: true
    }
  }
  attr {
    key: "validate_shape"
    value {
      b: true
    }
  }
}
node {
  name: "ps_2/Variable_2/read"
  op: "Identity"
  input: "ps_2/Variable_2"
  device: "/job:ps/task:2"
  attr {
    key: "T"
    value {
      type: DT_FLOAT
    }
  }
  attr {
    key: "_class"
    value {
      list {
        s: "loc:@ps_2/Variable_2"
      }
    }
  }
  attr {
    key: "_output_shapes"
    value {
      list {
        shape {
          dim {
            size: 5
          }
          dim {
            size: 5
          }
          dim {
            size: 32
          }
          dim {
            size: 64
          }
        }
      }
    }
  }
}
node {
  name: "ps_2/Const_1"
  op: "Const"
  device: "/job:ps/task:2"
  attr {
    key: "_output_shapes"
    value {
      list {
        shape {
          dim {
            size: 64
          }
        }
      }
    }
  }
  attr {
    key: "dtype"
    value {
      type: DT_FLOAT
    }
  }
  attr {
    key: "value"
    value {
      tensor {
        dtype: DT_FLOAT
        tensor_shape {
          dim {
            size: 64
          }
        }
        float_val: 0.10000000149011612
      }
    }
  }
}
node {
  name: "ps_2/Variable_3"
  op: "VariableV2"
  device: "/job:ps/task:2"
  attr {
    key: "_output_shapes"
    value {
      list {
        shape {
          dim {
            size: 64
          }
        }
      }
    }
  }
  attr {
    key: "container"
    value {
      s: ""
    }
  }
  attr {
    key: "dtype"
    value {
      type: DT_FLOAT
    }
  }
  attr {
    key: "shape"
    value {
      shape {
        dim {
          size: 64
        }
      }
    }
  }
  attr {
    key: "shared_name"
    value {
      s: ""
    }
  }
}
node {
  name: "ps_2/Variable_3/Assign"
  op: "Assign"
  input: "ps_2/Variable_3"
  input: "ps_2/Const_1"
  device: "/job:ps/task:2"
  attr {
    key: "T"
    value {
      type: DT_FLOAT
    }
  }
  attr {
    key: "_class"
    value {
      list {
        s: "loc:@ps_2/Variable_3"
      }
    }
  }
  attr {
    key: "_output_shapes"
    value {
      list {
        shape {
          dim {
            size: 64
          }
        }
      }
    }
  }
  attr {
    key: "use_locking"
    value {
      b: true
    }
  }
  attr {
    key: "validate_shape"
    value {
      b: true
    }
  }
}
node {
  name: "ps_2/Variable_3/read"
  op: "Identity"
  input: "ps_2/Variable_3"
  device: "/job:ps/task:2"
  attr {
    key: "T"
    value {
      type: DT_FLOAT
    }
  }
  attr {
    key: "_class"
    value {
      list {
        s: "loc:@ps_2/Variable_3"
      }
    }
  }
  attr {
    key: "_output_shapes"
    value {
      list {
        shape {
          dim {
            size: 64
          }
        }
      }
    }
  }
}
node {
  name: "ps_2/Conv2D_1"
  op: "Conv2D"
  input: "ps_2/MaxPool"
  input: "ps_2/Variable_2/read"
  device: "/job:ps/task:2"
  attr {
    key: "T"
    value {
      type: DT_FLOAT
    }
  }
  attr {
    key: "_output_shapes"
    value {
      list {
        shape {
          dim {
            size: -1
          }
          dim {
            size: 14
          }
          dim {
            size: 14
          }
          dim {
            size: 64
          }
        }
      }
    }
  }
  attr {
    key: "data_format"
    value {
      s: "NHWC"
    }
  }
  attr {
    key: "padding"
    value {
      s: "SAME"
    }
  }
  attr {
    key: "strides"
    value {
      list {
        i: 1
        i: 1
        i: 1
        i: 1
      }
    }
  }
  attr {
    key: "use_cudnn_on_gpu"
    value {
      b: true
    }
  }
}
node {
  name: "ps_2/add_1"
  op: "Add"
  input: "ps_2/Conv2D_1"
  input: "ps_2/Variable_3/read"
  device: "/job:ps/task:2"
  attr {
    key: "T"
    value {
      type: DT_FLOAT
    }
  }
  attr {
    key: "_output_shapes"
    value {
      list {
        shape {
          dim {
            size: -1
          }
          dim {
            size: 14
          }
          dim {
            size: 14
          }
          dim {
            size: 64
          }
        }
      }
    }
  }
}
node {
  name: "ps_2/Relu_1"
  op: "Relu"
  input: "ps_2/add_1"
  device: "/job:ps/task:2"
  attr {
    key: "T"
    value {
      type: DT_FLOAT
    }
  }
  attr {
    key: "_output_shapes"
    value {
      list {
        shape {
          dim {
            size: -1
          }
          dim {
            size: 14
          }
          dim {
            size: 14
          }
          dim {
            size: 64
          }
        }
      }
    }
  }
}
node {
  name: "ps_2/MaxPool_1"
  op: "MaxPool"
  input: "ps_2/Relu_1"
  device: "/job:ps/task:2"
  attr {
    key: "T"
    value {
      type: DT_FLOAT
    }
  }
  attr {
    key: "_output_shapes"
    value {
      list {
        shape {
          dim {
            size: -1
          }
          dim {
            size: 7
          }
          dim {
            size: 7
          }
          dim {
            size: 64
          }
        }
      }
    }
  }
  attr {
    key: "data_format"
    value {
      s: "NHWC"
    }
  }
  attr {
    key: "ksize"
    value {
      list {
        i: 1
        i: 2
        i: 2
        i: 1
      }
    }
  }
  attr {
    key: "padding"
    value {
      s: "SAME"
    }
  }
  attr {
    key: "strides"
    value {
      list {
        i: 1
        i: 2
        i: 2
        i: 1
      }
    }
  }
}
node {
  name: "ps_2/truncated_normal_2/shape"
  op: "Const"
  device: "/job:ps/task:2"
  attr {
    key: "_output_shapes"
    value {
      list {
        shape {
          dim {
            size: 2
          }
        }
      }
    }
  }
  attr {
    key: "dtype"
    value {
      type: DT_INT32
    }
  }
  attr {
    key: "value"
    value {
      tensor {
        dtype: DT_INT32
        tensor_shape {
          dim {
            size: 2
          }
        }
        tensor_content: "@\014\000\000\000\004\000\000"
      }
    }
  }
}
node {
  name: "ps_2/truncated_normal_2/mean"
  op: "Const"
  device: "/job:ps/task:2"
  attr {
    key: "_output_shapes"
    value {
      list {
        shape {
        }
      }
    }
  }
  attr {
    key: "dtype"
    value {
      type: DT_FLOAT
    }
  }
  attr {
    key: "value"
    value {
      tensor {
        dtype: DT_FLOAT
        tensor_shape {
        }
        float_val: 0.0
      }
    }
  }
}
node {
  name: "ps_2/truncated_normal_2/stddev"
  op: "Const"
  device: "/job:ps/task:2"
  attr {
    key: "_output_shapes"
    value {
      list {
        shape {
        }
      }
    }
  }
  attr {
    key: "dtype"
    value {
      type: DT_FLOAT
    }
  }
  attr {
    key: "value"
    value {
      tensor {
        dtype: DT_FLOAT
        tensor_shape {
        }
        float_val: 0.10000000149011612
      }
    }
  }
}
node {
  name: "ps_2/truncated_normal_2/TruncatedNormal"
  op: "TruncatedNormal"
  input: "ps_2/truncated_normal_2/shape"
  device: "/job:ps/task:2"
  attr {
    key: "T"
    value {
      type: DT_INT32
    }
  }
  attr {
    key: "_output_shapes"
    value {
      list {
        shape {
          dim {
            size: 3136
          }
          dim {
            size: 1024
          }
        }
      }
    }
  }
  attr {
    key: "dtype"
    value {
      type: DT_FLOAT
    }
  }
  attr {
    key: "seed"
    value {
      i: 2
    }
  }
  attr {
    key: "seed2"
    value {
      i: 41
    }
  }
}
node {
  name: "ps_2/truncated_normal_2/mul"
  op: "Mul"
  input: "ps_2/truncated_normal_2/TruncatedNormal"
  input: "ps_2/truncated_normal_2/stddev"
  device: "/job:ps/task:2"
  attr {
    key: "T"
    value {
      type: DT_FLOAT
    }
  }
  attr {
    key: "_output_shapes"
    value {
      list {
        shape {
          dim {
            size: 3136
          }
          dim {
            size: 1024
          }
        }
      }
    }
  }
}
node {
  name: "ps_2/truncated_normal_2"
  op: "Add"
  input: "ps_2/truncated_normal_2/mul"
  input: "ps_2/truncated_normal_2/mean"
  device: "/job:ps/task:2"
  attr {
    key: "T"
    value {
      type: DT_FLOAT
    }
  }
  attr {
    key: "_output_shapes"
    value {
      list {
        shape {
          dim {
            size: 3136
          }
          dim {
            size: 1024
          }
        }
      }
    }
  }
}
node {
  name: "ps_2/Variable_4"
  op: "VariableV2"
  device: "/job:ps/task:2"
  attr {
    key: "_output_shapes"
    value {
      list {
        shape {
          dim {
            size: 3136
          }
          dim {
            size: 1024
          }
        }
      }
    }
  }
  attr {
    key: "container"
    value {
      s: ""
    }
  }
  attr {
    key: "dtype"
    value {
      type: DT_FLOAT
    }
  }
  attr {
    key: "shape"
    value {
      shape {
        dim {
          size: 3136
        }
        dim {
          size: 1024
        }
      }
    }
  }
  attr {
    key: "shared_name"
    value {
      s: ""
    }
  }
}
node {
  name: "ps_2/Variable_4/Assign"
  op: "Assign"
  input: "ps_2/Variable_4"
  input: "ps_2/truncated_normal_2"
  device: "/job:ps/task:2"
  attr {
    key: "T"
    value {
      type: DT_FLOAT
    }
  }
  attr {
    key: "_class"
    value {
      list {
        s: "loc:@ps_2/Variable_4"
      }
    }
  }
  attr {
    key: "_output_shapes"
    value {
      list {
        shape {
          dim {
            size: 3136
          }
          dim {
            size: 1024
          }
        }
      }
    }
  }
  attr {
    key: "use_locking"
    value {
      b: true
    }
  }
  attr {
    key: "validate_shape"
    value {
      b: true
    }
  }
}
node {
  name: "ps_2/Variable_4/read"
  op: "Identity"
  input: "ps_2/Variable_4"
  device: "/job:ps/task:2"
  attr {
    key: "T"
    value {
      type: DT_FLOAT
    }
  }
  attr {
    key: "_class"
    value {
      list {
        s: "loc:@ps_2/Variable_4"
      }
    }
  }
  attr {
    key: "_output_shapes"
    value {
      list {
        shape {
          dim {
            size: 3136
          }
          dim {
            size: 1024
          }
        }
      }
    }
  }
}
node {
  name: "ps_2/Const_2"
  op: "Const"
  device: "/job:ps/task:2"
  attr {
    key: "_output_shapes"
    value {
      list {
        shape {
          dim {
            size: 1024
          }
        }
      }
    }
  }
  attr {
    key: "dtype"
    value {
      type: DT_FLOAT
    }
  }
  attr {
    key: "value"
    value {
      tensor {
        dtype: DT_FLOAT
        tensor_shape {
          dim {
            size: 1024
          }
        }
        float_val: 0.10000000149011612
      }
    }
  }
}
node {
  name: "ps_2/Variable_5"
  op: "VariableV2"
  device: "/job:ps/task:2"
  attr {
    key: "_output_shapes"
    value {
      list {
        shape {
          dim {
            size: 1024
          }
        }
      }
    }
  }
  attr {
    key: "container"
    value {
      s: ""
    }
  }
  attr {
    key: "dtype"
    value {
      type: DT_FLOAT
    }
  }
  attr {
    key: "shape"
    value {
      shape {
        dim {
          size: 1024
        }
      }
    }
  }
  attr {
    key: "shared_name"
    value {
      s: ""
    }
  }
}
node {
  name: "ps_2/Variable_5/Assign"
  op: "Assign"
  input: "ps_2/Variable_5"
  input: "ps_2/Const_2"
  device: "/job:ps/task:2"
  attr {
    key: "T"
    value {
      type: DT_FLOAT
    }
  }
  attr {
    key: "_class"
    value {
      list {
        s: "loc:@ps_2/Variable_5"
      }
    }
  }
  attr {
    key: "_output_shapes"
    value {
      list {
        shape {
          dim {
            size: 1024
          }
        }
      }
    }
  }
  attr {
    key: "use_locking"
    value {
      b: true
    }
  }
  attr {
    key: "validate_shape"
    value {
      b: true
    }
  }
}
node {
  name: "ps_2/Variable_5/read"
  op: "Identity"
  input: "ps_2/Variable_5"
  device: "/job:ps/task:2"
  attr {
    key: "T"
    value {
      type: DT_FLOAT
    }
  }
  attr {
    key: "_class"
    value {
      list {
        s: "loc:@ps_2/Variable_5"
      }
    }
  }
  attr {
    key: "_output_shapes"
    value {
      list {
        shape {
          dim {
            size: 1024
          }
        }
      }
    }
  }
}
node {
  name: "ps_2/Reshape_1/shape"
  op: "Const"
  device: "/job:ps/task:2"
  attr {
    key: "_output_shapes"
    value {
      list {
        shape {
          dim {
            size: 2
          }
        }
      }
    }
  }
  attr {
    key: "dtype"
    value {
      type: DT_INT32
    }
  }
  attr {
    key: "value"
    value {
      tensor {
        dtype: DT_INT32
        tensor_shape {
          dim {
            size: 2
          }
        }
        tensor_content: "\377\377\377\377@\014\000\000"
      }
    }
  }
}
node {
  name: "ps_2/Reshape_1"
  op: "Reshape"
  input: "ps_2/MaxPool_1"
  input: "ps_2/Reshape_1/shape"
  device: "/job:ps/task:2"
  attr {
    key: "T"
    value {
      type: DT_FLOAT
    }
  }
  attr {
    key: "Tshape"
    value {
      type: DT_INT32
    }
  }
  attr {
    key: "_output_shapes"
    value {
      list {
        shape {
          dim {
            size: -1
          }
          dim {
            size: 3136
          }
        }
      }
    }
  }
}
node {
  name: "ps_2/MatMul"
  op: "MatMul"
  input: "ps_2/Reshape_1"
  input: "ps_2/Variable_4/read"
  device: "/job:ps/task:2"
  attr {
    key: "T"
    value {
      type: DT_FLOAT
    }
  }
  attr {
    key: "_output_shapes"
    value {
      list {
        shape {
          dim {
            size: -1
          }
          dim {
            size: 1024
          }
        }
      }
    }
  }
  attr {
    key: "transpose_a"
    value {
      b: false
    }
  }
  attr {
    key: "transpose_b"
    value {
      b: false
    }
  }
}
node {
  name: "ps_2/add_2"
  op: "Add"
  input: "ps_2/MatMul"
  input: "ps_2/Variable_5/read"
  device: "/job:ps/task:2"
  attr {
    key: "T"
    value {
      type: DT_FLOAT
    }
  }
  attr {
    key: "_output_shapes"
    value {
      list {
        shape {
          dim {
            size: -1
          }
          dim {
            size: 1024
          }
        }
      }
    }
  }
}
node {
  name: "ps_2/Relu_2"
  op: "Relu"
  input: "ps_2/add_2"
  device: "/job:ps/task:2"
  attr {
    key: "T"
    value {
      type: DT_FLOAT
    }
  }
  attr {
    key: "_output_shapes"
    value {
      list {
        shape {
          dim {
            size: -1
          }
          dim {
            size: 1024
          }
        }
      }
    }
  }
}
node {
  name: "ps_2/Placeholder"
  op: "Placeholder"
  device: "/job:ps/task:2"
  attr {
    key: "_output_shapes"
    value {
      list {
        shape {
          unknown_rank: true
        }
      }
    }
  }
  attr {
    key: "dtype"
    value {
      type: DT_FLOAT
    }
  }
  attr {
    key: "shape"
    value {
      shape {
        unknown_rank: true
      }
    }
  }
}
node {
  name: "ps_2/dropout/Shape"
  op: "Shape"
  input: "ps_2/Relu_2"
  device: "/job:ps/task:2"
  attr {
    key: "T"
    value {
      type: DT_FLOAT
    }
  }
  attr {
    key: "_output_shapes"
    value {
      list {
        shape {
          dim {
            size: 2
          }
        }
      }
    }
  }
  attr {
    key: "out_type"
    value {
      type: DT_INT32
    }
  }
}
node {
  name: "ps_2/dropout/random_uniform/min"
  op: "Const"
  device: "/job:ps/task:2"
  attr {
    key: "_output_shapes"
    value {
      list {
        shape {
        }
      }
    }
  }
  attr {
    key: "dtype"
    value {
      type: DT_FLOAT
    }
  }
  attr {
    key: "value"
    value {
      tensor {
        dtype: DT_FLOAT
        tensor_shape {
        }
        float_val: 0.0
      }
    }
  }
}
node {
  name: "ps_2/dropout/random_uniform/max"
  op: "Const"
  device: "/job:ps/task:2"
  attr {
    key: "_output_shapes"
    value {
      list {
        shape {
        }
      }
    }
  }
  attr {
    key: "dtype"
    value {
      type: DT_FLOAT
    }
  }
  attr {
    key: "value"
    value {
      tensor {
        dtype: DT_FLOAT
        tensor_shape {
        }
        float_val: 1.0
      }
    }
  }
}
node {
  name: "ps_2/dropout/random_uniform/RandomUniform"
  op: "RandomUniform"
  input: "ps_2/dropout/Shape"
  device: "/job:ps/task:2"
  attr {
    key: "T"
    value {
      type: DT_INT32
    }
  }
  attr {
    key: "_output_shapes"
    value {
      list {
        shape {
          dim {
            size: -1
          }
          dim {
            size: 1024
          }
        }
      }
    }
  }
  attr {
    key: "dtype"
    value {
      type: DT_FLOAT
    }
  }
  attr {
    key: "seed"
    value {
      i: 2
    }
  }
  attr {
    key: "seed2"
    value {
      i: 60
    }
  }
}
node {
  name: "ps_2/dropout/random_uniform/sub"
  op: "Sub"
  input: "ps_2/dropout/random_uniform/max"
  input: "ps_2/dropout/random_uniform/min"
  device: "/job:ps/task:2"
  attr {
    key: "T"
    value {
      type: DT_FLOAT
    }
  }
  attr {
    key: "_output_shapes"
    value {
      list {
        shape {
        }
      }
    }
  }
}
node {
  name: "ps_2/dropout/random_uniform/mul"
  op: "Mul"
  input: "ps_2/dropout/random_uniform/RandomUniform"
  input: "ps_2/dropout/random_uniform/sub"
  device: "/job:ps/task:2"
  attr {
    key: "T"
    value {
      type: DT_FLOAT
    }
  }
  attr {
    key: "_output_shapes"
    value {
      list {
        shape {
          dim {
            size: -1
          }
          dim {
            size: 1024
          }
        }
      }
    }
  }
}
node {
  name: "ps_2/dropout/random_uniform"
  op: "Add"
  input: "ps_2/dropout/random_uniform/mul"
  input: "ps_2/dropout/random_uniform/min"
  device: "/job:ps/task:2"
  attr {
    key: "T"
    value {
      type: DT_FLOAT
    }
  }
  attr {
    key: "_output_shapes"
    value {
      list {
        shape {
          dim {
            size: -1
          }
          dim {
            size: 1024
          }
        }
      }
    }
  }
}
node {
  name: "ps_2/dropout/add"
  op: "Add"
  input: "ps_2/Placeholder"
  input: "ps_2/dropout/random_uniform"
  device: "/job:ps/task:2"
  attr {
    key: "T"
    value {
      type: DT_FLOAT
    }
  }
  attr {
    key: "_output_shapes"
    value {
      list {
        shape {
          unknown_rank: true
        }
      }
    }
  }
}
node {
  name: "ps_2/dropout/Floor"
  op: "Floor"
  input: "ps_2/dropout/add"
  device: "/job:ps/task:2"
  attr {
    key: "T"
    value {
      type: DT_FLOAT
    }
  }
  attr {
    key: "_output_shapes"
    value {
      list {
        shape {
          unknown_rank: true
        }
      }
    }
  }
}
node {
  name: "ps_2/dropout/div"
  op: "RealDiv"
  input: "ps_2/Relu_2"
  input: "ps_2/Placeholder"
  device: "/job:ps/task:2"
  attr {
    key: "T"
    value {
      type: DT_FLOAT
    }
  }
  attr {
    key: "_output_shapes"
    value {
      list {
        shape {
          unknown_rank: true
        }
      }
    }
  }
}
node {
  name: "ps_2/dropout/mul"
  op: "Mul"
  input: "ps_2/dropout/div"
  input: "ps_2/dropout/Floor"
  device: "/job:ps/task:2"
  attr {
    key: "T"
    value {
      type: DT_FLOAT
    }
  }
  attr {
    key: "_output_shapes"
    value {
      list {
        shape {
          dim {
            size: -1
          }
          dim {
            size: 1024
          }
        }
      }
    }
  }
}
node {
  name: "ps_2/truncated_normal_3/shape"
  op: "Const"
  device: "/job:ps/task:2"
  attr {
    key: "_output_shapes"
    value {
      list {
        shape {
          dim {
            size: 2
          }
        }
      }
    }
  }
  attr {
    key: "dtype"
    value {
      type: DT_INT32
    }
  }
  attr {
    key: "value"
    value {
      tensor {
        dtype: DT_INT32
        tensor_shape {
          dim {
            size: 2
          }
        }
        tensor_content: "\000\004\000\000\n\000\000\000"
      }
    }
  }
}
node {
  name: "ps_2/truncated_normal_3/mean"
  op: "Const"
  device: "/job:ps/task:2"
  attr {
    key: "_output_shapes"
    value {
      list {
        shape {
        }
      }
    }
  }
  attr {
    key: "dtype"
    value {
      type: DT_FLOAT
    }
  }
  attr {
    key: "value"
    value {
      tensor {
        dtype: DT_FLOAT
        tensor_shape {
        }
        float_val: 0.0
      }
    }
  }
}
node {
  name: "ps_2/truncated_normal_3/stddev"
  op: "Const"
  device: "/job:ps/task:2"
  attr {
    key: "_output_shapes"
    value {
      list {
        shape {
        }
      }
    }
  }
  attr {
    key: "dtype"
    value {
      type: DT_FLOAT
    }
  }
  attr {
    key: "value"
    value {
      tensor {
        dtype: DT_FLOAT
        tensor_shape {
        }
        float_val: 0.10000000149011612
      }
    }
  }
}
node {
  name: "ps_2/truncated_normal_3/TruncatedNormal"
  op: "TruncatedNormal"
  input: "ps_2/truncated_normal_3/shape"
  device: "/job:ps/task:2"
  attr {
    key: "T"
    value {
      type: DT_INT32
    }
  }
  attr {
    key: "_output_shapes"
    value {
      list {
        shape {
          dim {
            size: 1024
          }
          dim {
            size: 10
          }
        }
      }
    }
  }
  attr {
    key: "dtype"
    value {
      type: DT_FLOAT
    }
  }
  attr {
    key: "seed"
    value {
      i: 2
    }
  }
  attr {
    key: "seed2"
    value {
      i: 71
    }
  }
}
node {
  name: "ps_2/truncated_normal_3/mul"
  op: "Mul"
  input: "ps_2/truncated_normal_3/TruncatedNormal"
  input: "ps_2/truncated_normal_3/stddev"
  device: "/job:ps/task:2"
  attr {
    key: "T"
    value {
      type: DT_FLOAT
    }
  }
  attr {
    key: "_output_shapes"
    value {
      list {
        shape {
          dim {
            size: 1024
          }
          dim {
            size: 10
          }
        }
      }
    }
  }
}
node {
  name: "ps_2/truncated_normal_3"
  op: "Add"
  input: "ps_2/truncated_normal_3/mul"
  input: "ps_2/truncated_normal_3/mean"
  device: "/job:ps/task:2"
  attr {
    key: "T"
    value {
      type: DT_FLOAT
    }
  }
  attr {
    key: "_output_shapes"
    value {
      list {
        shape {
          dim {
            size: 1024
          }
          dim {
            size: 10
          }
        }
      }
    }
  }
}
node {
  name: "ps_2/Variable_6"
  op: "VariableV2"
  device: "/job:ps/task:2"
  attr {
    key: "_output_shapes"
    value {
      list {
        shape {
          dim {
            size: 1024
          }
          dim {
            size: 10
          }
        }
      }
    }
  }
  attr {
    key: "container"
    value {
      s: ""
    }
  }
  attr {
    key: "dtype"
    value {
      type: DT_FLOAT
    }
  }
  attr {
    key: "shape"
    value {
      shape {
        dim {
          size: 1024
        }
        dim {
          size: 10
        }
      }
    }
  }
  attr {
    key: "shared_name"
    value {
      s: ""
    }
  }
}
node {
  name: "ps_2/Variable_6/Assign"
  op: "Assign"
  input: "ps_2/Variable_6"
  input: "ps_2/truncated_normal_3"
  device: "/job:ps/task:2"
  attr {
    key: "T"
    value {
      type: DT_FLOAT
    }
  }
  attr {
    key: "_class"
    value {
      list {
        s: "loc:@ps_2/Variable_6"
      }
    }
  }
  attr {
    key: "_output_shapes"
    value {
      list {
        shape {
          dim {
            size: 1024
          }
          dim {
            size: 10
          }
        }
      }
    }
  }
  attr {
    key: "use_locking"
    value {
      b: true
    }
  }
  attr {
    key: "validate_shape"
    value {
      b: true
    }
  }
}
node {
  name: "ps_2/Variable_6/read"
  op: "Identity"
  input: "ps_2/Variable_6"
  device: "/job:ps/task:2"
  attr {
    key: "T"
    value {
      type: DT_FLOAT
    }
  }
  attr {
    key: "_class"
    value {
      list {
        s: "loc:@ps_2/Variable_6"
      }
    }
  }
  attr {
    key: "_output_shapes"
    value {
      list {
        shape {
          dim {
            size: 1024
          }
          dim {
            size: 10
          }
        }
      }
    }
  }
}
node {
  name: "ps_2/Const_3"
  op: "Const"
  device: "/job:ps/task:2"
  attr {
    key: "_output_shapes"
    value {
      list {
        shape {
          dim {
            size: 10
          }
        }
      }
    }
  }
  attr {
    key: "dtype"
    value {
      type: DT_FLOAT
    }
  }
  attr {
    key: "value"
    value {
      tensor {
        dtype: DT_FLOAT
        tensor_shape {
          dim {
            size: 10
          }
        }
        float_val: 0.10000000149011612
      }
    }
  }
}
node {
  name: "ps_2/Variable_7"
  op: "VariableV2"
  device: "/job:ps/task:2"
  attr {
    key: "_output_shapes"
    value {
      list {
        shape {
          dim {
            size: 10
          }
        }
      }
    }
  }
  attr {
    key: "container"
    value {
      s: ""
    }
  }
  attr {
    key: "dtype"
    value {
      type: DT_FLOAT
    }
  }
  attr {
    key: "shape"
    value {
      shape {
        dim {
          size: 10
        }
      }
    }
  }
  attr {
    key: "shared_name"
    value {
      s: ""
    }
  }
}
node {
  name: "ps_2/Variable_7/Assign"
  op: "Assign"
  input: "ps_2/Variable_7"
  input: "ps_2/Const_3"
  device: "/job:ps/task:2"
  attr {
    key: "T"
    value {
      type: DT_FLOAT
    }
  }
  attr {
    key: "_class"
    value {
      list {
        s: "loc:@ps_2/Variable_7"
      }
    }
  }
  attr {
    key: "_output_shapes"
    value {
      list {
        shape {
          dim {
            size: 10
          }
        }
      }
    }
  }
  attr {
    key: "use_locking"
    value {
      b: true
    }
  }
  attr {
    key: "validate_shape"
    value {
      b: true
    }
  }
}
node {
  name: "ps_2/Variable_7/read"
  op: "Identity"
  input: "ps_2/Variable_7"
  device: "/job:ps/task:2"
  attr {
    key: "T"
    value {
      type: DT_FLOAT
    }
  }
  attr {
    key: "_class"
    value {
      list {
        s: "loc:@ps_2/Variable_7"
      }
    }
  }
  attr {
    key: "_output_shapes"
    value {
      list {
        shape {
          dim {
            size: 10
          }
        }
      }
    }
  }
}
node {
  name: "ps_2/MatMul_1"
  op: "MatMul"
  input: "ps_2/dropout/mul"
  input: "ps_2/Variable_6/read"
  device: "/job:ps/task:2"
  attr {
    key: "T"
    value {
      type: DT_FLOAT
    }
  }
  attr {
    key: "_output_shapes"
    value {
      list {
        shape {
          dim {
            size: -1
          }
          dim {
            size: 10
          }
        }
      }
    }
  }
  attr {
    key: "transpose_a"
    value {
      b: false
    }
  }
  attr {
    key: "transpose_b"
    value {
      b: false
    }
  }
}
node {
  name: "ps_2/add_3"
  op: "Add"
  input: "ps_2/MatMul_1"
  input: "ps_2/Variable_7/read"
  device: "/job:ps/task:2"
  attr {
    key: "T"
    value {
      type: DT_FLOAT
    }
  }
  attr {
    key: "_output_shapes"
    value {
      list {
        shape {
          dim {
            size: -1
          }
          dim {
            size: 10
          }
        }
      }
    }
  }
}
node {
  name: "ArgMax/dimension"
  op: "Const"
  device: "/job:ps/task:2"
  attr {
    key: "_output_shapes"
    value {
      list {
        shape {
        }
      }
    }
  }
  attr {
    key: "dtype"
    value {
      type: DT_INT32
    }
  }
  attr {
    key: "value"
    value {
      tensor {
        dtype: DT_INT32
        tensor_shape {
        }
        int_val: 1
      }
    }
  }
}
node {
  name: "ArgMax"
  op: "ArgMax"
  input: "Placeholder_1"
  input: "ArgMax/dimension"
  device: "/job:ps/task:2"
  attr {
    key: "T"
    value {
      type: DT_FLOAT
    }
  }
  attr {
    key: "Tidx"
    value {
      type: DT_INT32
    }
  }
  attr {
    key: "_output_shapes"
    value {
      list {
        shape {
          dim {
            size: -1
          }
        }
      }
    }
  }
  attr {
    key: "output_type"
    value {
      type: DT_INT64
    }
  }
}
node {
  name: "ArgMax_1/dimension"
  op: "Const"
  device: "/job:ps/task:2"
  attr {
    key: "_output_shapes"
    value {
      list {
        shape {
        }
      }
    }
  }
  attr {
    key: "dtype"
    value {
      type: DT_INT32
    }
  }
  attr {
    key: "value"
    value {
      tensor {
        dtype: DT_INT32
        tensor_shape {
        }
        int_val: 1
      }
    }
  }
}
node {
  name: "ArgMax_1"
  op: "ArgMax"
  input: "ps_2/add_3"
  input: "ArgMax_1/dimension"
  device: "/job:ps/task:2"
  attr {
    key: "T"
    value {
      type: DT_FLOAT
    }
  }
  attr {
    key: "Tidx"
    value {
      type: DT_INT32
    }
  }
  attr {
    key: "_output_shapes"
    value {
      list {
        shape {
          dim {
            size: -1
          }
        }
      }
    }
  }
  attr {
    key: "output_type"
    value {
      type: DT_INT64
    }
  }
}
node {
  name: "Equal"
  op: "Equal"
  input: "ArgMax"
  input: "ArgMax_1"
  device: "/job:ps/task:2"
  attr {
    key: "T"
    value {
      type: DT_INT64
    }
  }
  attr {
    key: "_output_shapes"
    value {
      list {
        shape {
          dim {
            size: -1
          }
        }
      }
    }
  }
}
node {
  name: "Cast"
  op: "Cast"
  input: "Equal"
  device: "/job:ps/task:2"
  attr {
    key: "DstT"
    value {
      type: DT_FLOAT
    }
  }
  attr {
    key: "SrcT"
    value {
      type: DT_BOOL
    }
  }
  attr {
    key: "_output_shapes"
    value {
      list {
        shape {
          dim {
            size: -1
          }
        }
      }
    }
  }
}
node {
  name: "Const"
  op: "Const"
  device: "/job:ps/task:2"
  attr {
    key: "_output_shapes"
    value {
      list {
        shape {
          dim {
            size: 1
          }
        }
      }
    }
  }
  attr {
    key: "dtype"
    value {
      type: DT_INT32
    }
  }
  attr {
    key: "value"
    value {
      tensor {
        dtype: DT_INT32
        tensor_shape {
          dim {
            size: 1
          }
        }
        int_val: 0
      }
    }
  }
}
node {
  name: "Mean"
  op: "Mean"
  input: "Cast"
  input: "Const"
  device: "/job:ps/task:2"
  attr {
    key: "T"
    value {
      type: DT_FLOAT
    }
  }
  attr {
    key: "Tidx"
    value {
      type: DT_INT32
    }
  }
  attr {
    key: "_output_shapes"
    value {
      list {
        shape {
        }
      }
    }
  }
  attr {
    key: "keep_dims"
    value {
      b: false
    }
  }
}
node {
  name: "Placeholder_2"
  op: "Placeholder"
  device: "/job:ps/task:1"
  attr {
    key: "_output_shapes"
    value {
      list {
        shape {
          dim {
            size: -1
          }
          dim {
            size: 784
          }
        }
      }
    }
  }
  attr {
    key: "dtype"
    value {
      type: DT_FLOAT
    }
  }
  attr {
    key: "shape"
    value {
      shape {
        dim {
          size: -1
        }
        dim {
          size: 784
        }
      }
    }
  }
}
node {
  name: "Placeholder_3"
  op: "Placeholder"
  device: "/job:ps/task:1"
  attr {
    key: "_output_shapes"
    value {
      list {
        shape {
          dim {
            size: -1
          }
          dim {
            size: 10
          }
        }
      }
    }
  }
  attr {
    key: "dtype"
    value {
      type: DT_FLOAT
    }
  }
  attr {
    key: "shape"
    value {
      shape {
        dim {
          size: -1
        }
        dim {
          size: 10
        }
      }
    }
  }
}
node {
  name: "ps_1/truncated_normal/shape"
  op: "Const"
  device: "/job:ps/task:1"
  attr {
    key: "_output_shapes"
    value {
      list {
        shape {
          dim {
            size: 4
          }
        }
      }
    }
  }
  attr {
    key: "dtype"
    value {
      type: DT_INT32
    }
  }
  attr {
    key: "value"
    value {
      tensor {
        dtype: DT_INT32
        tensor_shape {
          dim {
            size: 4
          }
        }
        tensor_content: "\005\000\000\000\005\000\000\000\001\000\000\000 \000\000\000"
      }
    }
  }
}
node {
  name: "ps_1/truncated_normal/mean"
  op: "Const"
  device: "/job:ps/task:1"
  attr {
    key: "_output_shapes"
    value {
      list {
        shape {
        }
      }
    }
  }
  attr {
    key: "dtype"
    value {
      type: DT_FLOAT
    }
  }
  attr {
    key: "value"
    value {
      tensor {
        dtype: DT_FLOAT
        tensor_shape {
        }
        float_val: 0.0
      }
    }
  }
}
node {
  name: "ps_1/truncated_normal/stddev"
  op: "Const"
  device: "/job:ps/task:1"
  attr {
    key: "_output_shapes"
    value {
      list {
        shape {
        }
      }
    }
  }
  attr {
    key: "dtype"
    value {
      type: DT_FLOAT
    }
  }
  attr {
    key: "value"
    value {
      tensor {
        dtype: DT_FLOAT
        tensor_shape {
        }
        float_val: 0.10000000149011612
      }
    }
  }
}
node {
  name: "ps_1/truncated_normal/TruncatedNormal"
  op: "TruncatedNormal"
  input: "ps_1/truncated_normal/shape"
  device: "/job:ps/task:1"
  attr {
    key: "T"
    value {
      type: DT_INT32
    }
  }
  attr {
    key: "_output_shapes"
    value {
      list {
        shape {
          dim {
            size: 5
          }
          dim {
            size: 5
          }
          dim {
            size: 1
          }
          dim {
            size: 32
          }
        }
      }
    }
  }
  attr {
    key: "dtype"
    value {
      type: DT_FLOAT
    }
  }
  attr {
    key: "seed"
    value {
      i: 2
    }
  }
  attr {
    key: "seed2"
    value {
      i: 96
    }
  }
}
node {
  name: "ps_1/truncated_normal/mul"
  op: "Mul"
  input: "ps_1/truncated_normal/TruncatedNormal"
  input: "ps_1/truncated_normal/stddev"
  device: "/job:ps/task:1"
  attr {
    key: "T"
    value {
      type: DT_FLOAT
    }
  }
  attr {
    key: "_output_shapes"
    value {
      list {
        shape {
          dim {
            size: 5
          }
          dim {
            size: 5
          }
          dim {
            size: 1
          }
          dim {
            size: 32
          }
        }
      }
    }
  }
}
node {
  name: "ps_1/truncated_normal"
  op: "Add"
  input: "ps_1/truncated_normal/mul"
  input: "ps_1/truncated_normal/mean"
  device: "/job:ps/task:1"
  attr {
    key: "T"
    value {
      type: DT_FLOAT
    }
  }
  attr {
    key: "_output_shapes"
    value {
      list {
        shape {
          dim {
            size: 5
          }
          dim {
            size: 5
          }
          dim {
            size: 1
          }
          dim {
            size: 32
          }
        }
      }
    }
  }
}
node {
  name: "ps_1/Variable"
  op: "VariableV2"
  device: "/job:ps/task:1"
  attr {
    key: "_output_shapes"
    value {
      list {
        shape {
          dim {
            size: 5
          }
          dim {
            size: 5
          }
          dim {
            size: 1
          }
          dim {
            size: 32
          }
        }
      }
    }
  }
  attr {
    key: "container"
    value {
      s: ""
    }
  }
  attr {
    key: "dtype"
    value {
      type: DT_FLOAT
    }
  }
  attr {
    key: "shape"
    value {
      shape {
        dim {
          size: 5
        }
        dim {
          size: 5
        }
        dim {
          size: 1
        }
        dim {
          size: 32
        }
      }
    }
  }
  attr {
    key: "shared_name"
    value {
      s: ""
    }
  }
}
node {
  name: "ps_1/Variable/Assign"
  op: "Assign"
  input: "ps_1/Variable"
  input: "ps_1/truncated_normal"
  device: "/job:ps/task:1"
  attr {
    key: "T"
    value {
      type: DT_FLOAT
    }
  }
  attr {
    key: "_class"
    value {
      list {
        s: "loc:@ps_1/Variable"
      }
    }
  }
  attr {
    key: "_output_shapes"
    value {
      list {
        shape {
          dim {
            size: 5
          }
          dim {
            size: 5
          }
          dim {
            size: 1
          }
          dim {
            size: 32
          }
        }
      }
    }
  }
  attr {
    key: "use_locking"
    value {
      b: true
    }
  }
  attr {
    key: "validate_shape"
    value {
      b: true
    }
  }
}
node {
  name: "ps_1/Variable/read"
  op: "Identity"
  input: "ps_1/Variable"
  device: "/job:ps/task:1"
  attr {
    key: "T"
    value {
      type: DT_FLOAT
    }
  }
  attr {
    key: "_class"
    value {
      list {
        s: "loc:@ps_1/Variable"
      }
    }
  }
  attr {
    key: "_output_shapes"
    value {
      list {
        shape {
          dim {
            size: 5
          }
          dim {
            size: 5
          }
          dim {
            size: 1
          }
          dim {
            size: 32
          }
        }
      }
    }
  }
}
node {
  name: "ps_1/Const"
  op: "Const"
  device: "/job:ps/task:1"
  attr {
    key: "_output_shapes"
    value {
      list {
        shape {
          dim {
            size: 32
          }
        }
      }
    }
  }
  attr {
    key: "dtype"
    value {
      type: DT_FLOAT
    }
  }
  attr {
    key: "value"
    value {
      tensor {
        dtype: DT_FLOAT
        tensor_shape {
          dim {
            size: 32
          }
        }
        float_val: 0.10000000149011612
      }
    }
  }
}
node {
  name: "ps_1/Variable_1"
  op: "VariableV2"
  device: "/job:ps/task:1"
  attr {
    key: "_output_shapes"
    value {
      list {
        shape {
          dim {
            size: 32
          }
        }
      }
    }
  }
  attr {
    key: "container"
    value {
      s: ""
    }
  }
  attr {
    key: "dtype"
    value {
      type: DT_FLOAT
    }
  }
  attr {
    key: "shape"
    value {
      shape {
        dim {
          size: 32
        }
      }
    }
  }
  attr {
    key: "shared_name"
    value {
      s: ""
    }
  }
}
node {
  name: "ps_1/Variable_1/Assign"
  op: "Assign"
  input: "ps_1/Variable_1"
  input: "ps_1/Const"
  device: "/job:ps/task:1"
  attr {
    key: "T"
    value {
      type: DT_FLOAT
    }
  }
  attr {
    key: "_class"
    value {
      list {
        s: "loc:@ps_1/Variable_1"
      }
    }
  }
  attr {
    key: "_output_shapes"
    value {
      list {
        shape {
          dim {
            size: 32
          }
        }
      }
    }
  }
  attr {
    key: "use_locking"
    value {
      b: true
    }
  }
  attr {
    key: "validate_shape"
    value {
      b: true
    }
  }
}
node {
  name: "ps_1/Variable_1/read"
  op: "Identity"
  input: "ps_1/Variable_1"
  device: "/job:ps/task:1"
  attr {
    key: "T"
    value {
      type: DT_FLOAT
    }
  }
  attr {
    key: "_class"
    value {
      list {
        s: "loc:@ps_1/Variable_1"
      }
    }
  }
  attr {
    key: "_output_shapes"
    value {
      list {
        shape {
          dim {
            size: 32
          }
        }
      }
    }
  }
}
node {
  name: "ps_1/Reshape/shape"
  op: "Const"
  device: "/job:ps/task:1"
  attr {
    key: "_output_shapes"
    value {
      list {
        shape {
          dim {
            size: 4
          }
        }
      }
    }
  }
  attr {
    key: "dtype"
    value {
      type: DT_INT32
    }
  }
  attr {
    key: "value"
    value {
      tensor {
        dtype: DT_INT32
        tensor_shape {
          dim {
            size: 4
          }
        }
        tensor_content: "\377\377\377\377\034\000\000\000\034\000\000\000\001\000\000\000"
      }
    }
  }
}
node {
  name: "ps_1/Reshape"
  op: "Reshape"
  input: "Placeholder_2"
  input: "ps_1/Reshape/shape"
  device: "/job:ps/task:1"
  attr {
    key: "T"
    value {
      type: DT_FLOAT
    }
  }
  attr {
    key: "Tshape"
    value {
      type: DT_INT32
    }
  }
  attr {
    key: "_output_shapes"
    value {
      list {
        shape {
          dim {
            size: -1
          }
          dim {
            size: 28
          }
          dim {
            size: 28
          }
          dim {
            size: 1
          }
        }
      }
    }
  }
}
node {
  name: "ps_1/Conv2D"
  op: "Conv2D"
  input: "ps_1/Reshape"
  input: "ps_1/Variable/read"
  device: "/job:ps/task:1"
  attr {
    key: "T"
    value {
      type: DT_FLOAT
    }
  }
  attr {
    key: "_output_shapes"
    value {
      list {
        shape {
          dim {
            size: -1
          }
          dim {
            size: 28
          }
          dim {
            size: 28
          }
          dim {
            size: 32
          }
        }
      }
    }
  }
  attr {
    key: "data_format"
    value {
      s: "NHWC"
    }
  }
  attr {
    key: "padding"
    value {
      s: "SAME"
    }
  }
  attr {
    key: "strides"
    value {
      list {
        i: 1
        i: 1
        i: 1
        i: 1
      }
    }
  }
  attr {
    key: "use_cudnn_on_gpu"
    value {
      b: true
    }
  }
}
node {
  name: "ps_1/add"
  op: "Add"
  input: "ps_1/Conv2D"
  input: "ps_1/Variable_1/read"
  device: "/job:ps/task:1"
  attr {
    key: "T"
    value {
      type: DT_FLOAT
    }
  }
  attr {
    key: "_output_shapes"
    value {
      list {
        shape {
          dim {
            size: -1
          }
          dim {
            size: 28
          }
          dim {
            size: 28
          }
          dim {
            size: 32
          }
        }
      }
    }
  }
}
node {
  name: "ps_1/Relu"
  op: "Relu"
  input: "ps_1/add"
  device: "/job:ps/task:1"
  attr {
    key: "T"
    value {
      type: DT_FLOAT
    }
  }
  attr {
    key: "_output_shapes"
    value {
      list {
        shape {
          dim {
            size: -1
          }
          dim {
            size: 28
          }
          dim {
            size: 28
          }
          dim {
            size: 32
          }
        }
      }
    }
  }
}
node {
  name: "ps_1/MaxPool"
  op: "MaxPool"
  input: "ps_1/Relu"
  device: "/job:ps/task:1"
  attr {
    key: "T"
    value {
      type: DT_FLOAT
    }
  }
  attr {
    key: "_output_shapes"
    value {
      list {
        shape {
          dim {
            size: -1
          }
          dim {
            size: 14
          }
          dim {
            size: 14
          }
          dim {
            size: 32
          }
        }
      }
    }
  }
  attr {
    key: "data_format"
    value {
      s: "NHWC"
    }
  }
  attr {
    key: "ksize"
    value {
      list {
        i: 1
        i: 2
        i: 2
        i: 1
      }
    }
  }
  attr {
    key: "padding"
    value {
      s: "SAME"
    }
  }
  attr {
    key: "strides"
    value {
      list {
        i: 1
        i: 2
        i: 2
        i: 1
      }
    }
  }
}
node {
  name: "ps_1/truncated_normal_1/shape"
  op: "Const"
  device: "/job:ps/task:1"
  attr {
    key: "_output_shapes"
    value {
      list {
        shape {
          dim {
            size: 4
          }
        }
      }
    }
  }
  attr {
    key: "dtype"
    value {
      type: DT_INT32
    }
  }
  attr {
    key: "value"
    value {
      tensor {
        dtype: DT_INT32
        tensor_shape {
          dim {
            size: 4
          }
        }
        tensor_content: "\005\000\000\000\005\000\000\000 \000\000\000@\000\000\000"
      }
    }
  }
}
node {
  name: "ps_1/truncated_normal_1/mean"
  op: "Const"
  device: "/job:ps/task:1"
  attr {
    key: "_output_shapes"
    value {
      list {
        shape {
        }
      }
    }
  }
  attr {
    key: "dtype"
    value {
      type: DT_FLOAT
    }
  }
  attr {
    key: "value"
    value {
      tensor {
        dtype: DT_FLOAT
        tensor_shape {
        }
        float_val: 0.0
      }
    }
  }
}
node {
  name: "ps_1/truncated_normal_1/stddev"
  op: "Const"
  device: "/job:ps/task:1"
  attr {
    key: "_output_shapes"
    value {
      list {
        shape {
        }
      }
    }
  }
  attr {
    key: "dtype"
    value {
      type: DT_FLOAT
    }
  }
  attr {
    key: "value"
    value {
      tensor {
        dtype: DT_FLOAT
        tensor_shape {
        }
        float_val: 0.10000000149011612
      }
    }
  }
}
node {
  name: "ps_1/truncated_normal_1/TruncatedNormal"
  op: "TruncatedNormal"
  input: "ps_1/truncated_normal_1/shape"
  device: "/job:ps/task:1"
  attr {
    key: "T"
    value {
      type: DT_INT32
    }
  }
  attr {
    key: "_output_shapes"
    value {
      list {
        shape {
          dim {
            size: 5
          }
          dim {
            size: 5
          }
          dim {
            size: 32
          }
          dim {
            size: 64
          }
        }
      }
    }
  }
  attr {
    key: "dtype"
    value {
      type: DT_FLOAT
    }
  }
  attr {
    key: "seed"
    value {
      i: 2
    }
  }
  attr {
    key: "seed2"
    value {
      i: 115
    }
  }
}
node {
  name: "ps_1/truncated_normal_1/mul"
  op: "Mul"
  input: "ps_1/truncated_normal_1/TruncatedNormal"
  input: "ps_1/truncated_normal_1/stddev"
  device: "/job:ps/task:1"
  attr {
    key: "T"
    value {
      type: DT_FLOAT
    }
  }
  attr {
    key: "_output_shapes"
    value {
      list {
        shape {
          dim {
            size: 5
          }
          dim {
            size: 5
          }
          dim {
            size: 32
          }
          dim {
            size: 64
          }
        }
      }
    }
  }
}
node {
  name: "ps_1/truncated_normal_1"
  op: "Add"
  input: "ps_1/truncated_normal_1/mul"
  input: "ps_1/truncated_normal_1/mean"
  device: "/job:ps/task:1"
  attr {
    key: "T"
    value {
      type: DT_FLOAT
    }
  }
  attr {
    key: "_output_shapes"
    value {
      list {
        shape {
          dim {
            size: 5
          }
          dim {
            size: 5
          }
          dim {
            size: 32
          }
          dim {
            size: 64
          }
        }
      }
    }
  }
}
node {
  name: "ps_1/Variable_2"
  op: "VariableV2"
  device: "/job:ps/task:1"
  attr {
    key: "_output_shapes"
    value {
      list {
        shape {
          dim {
            size: 5
          }
          dim {
            size: 5
          }
          dim {
            size: 32
          }
          dim {
            size: 64
          }
        }
      }
    }
  }
  attr {
    key: "container"
    value {
      s: ""
    }
  }
  attr {
    key: "dtype"
    value {
      type: DT_FLOAT
    }
  }
  attr {
    key: "shape"
    value {
      shape {
        dim {
          size: 5
        }
        dim {
          size: 5
        }
        dim {
          size: 32
        }
        dim {
          size: 64
        }
      }
    }
  }
  attr {
    key: "shared_name"
    value {
      s: ""
    }
  }
}
node {
  name: "ps_1/Variable_2/Assign"
  op: "Assign"
  input: "ps_1/Variable_2"
  input: "ps_1/truncated_normal_1"
  device: "/job:ps/task:1"
  attr {
    key: "T"
    value {
      type: DT_FLOAT
    }
  }
  attr {
    key: "_class"
    value {
      list {
        s: "loc:@ps_1/Variable_2"
      }
    }
  }
  attr {
    key: "_output_shapes"
    value {
      list {
        shape {
          dim {
            size: 5
          }
          dim {
            size: 5
          }
          dim {
            size: 32
          }
          dim {
            size: 64
          }
        }
      }
    }
  }
  attr {
    key: "use_locking"
    value {
      b: true
    }
  }
  attr {
    key: "validate_shape"
    value {
      b: true
    }
  }
}
node {
  name: "ps_1/Variable_2/read"
  op: "Identity"
  input: "ps_1/Variable_2"
  device: "/job:ps/task:1"
  attr {
    key: "T"
    value {
      type: DT_FLOAT
    }
  }
  attr {
    key: "_class"
    value {
      list {
        s: "loc:@ps_1/Variable_2"
      }
    }
  }
  attr {
    key: "_output_shapes"
    value {
      list {
        shape {
          dim {
            size: 5
          }
          dim {
            size: 5
          }
          dim {
            size: 32
          }
          dim {
            size: 64
          }
        }
      }
    }
  }
}
node {
  name: "ps_1/Const_1"
  op: "Const"
  device: "/job:ps/task:1"
  attr {
    key: "_output_shapes"
    value {
      list {
        shape {
          dim {
            size: 64
          }
        }
      }
    }
  }
  attr {
    key: "dtype"
    value {
      type: DT_FLOAT
    }
  }
  attr {
    key: "value"
    value {
      tensor {
        dtype: DT_FLOAT
        tensor_shape {
          dim {
            size: 64
          }
        }
        float_val: 0.10000000149011612
      }
    }
  }
}
node {
  name: "ps_1/Variable_3"
  op: "VariableV2"
  device: "/job:ps/task:1"
  attr {
    key: "_output_shapes"
    value {
      list {
        shape {
          dim {
            size: 64
          }
        }
      }
    }
  }
  attr {
    key: "container"
    value {
      s: ""
    }
  }
  attr {
    key: "dtype"
    value {
      type: DT_FLOAT
    }
  }
  attr {
    key: "shape"
    value {
      shape {
        dim {
          size: 64
        }
      }
    }
  }
  attr {
    key: "shared_name"
    value {
      s: ""
    }
  }
}
node {
  name: "ps_1/Variable_3/Assign"
  op: "Assign"
  input: "ps_1/Variable_3"
  input: "ps_1/Const_1"
  device: "/job:ps/task:1"
  attr {
    key: "T"
    value {
      type: DT_FLOAT
    }
  }
  attr {
    key: "_class"
    value {
      list {
        s: "loc:@ps_1/Variable_3"
      }
    }
  }
  attr {
    key: "_output_shapes"
    value {
      list {
        shape {
          dim {
            size: 64
          }
        }
      }
    }
  }
  attr {
    key: "use_locking"
    value {
      b: true
    }
  }
  attr {
    key: "validate_shape"
    value {
      b: true
    }
  }
}
node {
  name: "ps_1/Variable_3/read"
  op: "Identity"
  input: "ps_1/Variable_3"
  device: "/job:ps/task:1"
  attr {
    key: "T"
    value {
      type: DT_FLOAT
    }
  }
  attr {
    key: "_class"
    value {
      list {
        s: "loc:@ps_1/Variable_3"
      }
    }
  }
  attr {
    key: "_output_shapes"
    value {
      list {
        shape {
          dim {
            size: 64
          }
        }
      }
    }
  }
}
node {
  name: "ps_1/Conv2D_1"
  op: "Conv2D"
  input: "ps_1/MaxPool"
  input: "ps_1/Variable_2/read"
  device: "/job:ps/task:1"
  attr {
    key: "T"
    value {
      type: DT_FLOAT
    }
  }
  attr {
    key: "_output_shapes"
    value {
      list {
        shape {
          dim {
            size: -1
          }
          dim {
            size: 14
          }
          dim {
            size: 14
          }
          dim {
            size: 64
          }
        }
      }
    }
  }
  attr {
    key: "data_format"
    value {
      s: "NHWC"
    }
  }
  attr {
    key: "padding"
    value {
      s: "SAME"
    }
  }
  attr {
    key: "strides"
    value {
      list {
        i: 1
        i: 1
        i: 1
        i: 1
      }
    }
  }
  attr {
    key: "use_cudnn_on_gpu"
    value {
      b: true
    }
  }
}
node {
  name: "ps_1/add_1"
  op: "Add"
  input: "ps_1/Conv2D_1"
  input: "ps_1/Variable_3/read"
  device: "/job:ps/task:1"
  attr {
    key: "T"
    value {
      type: DT_FLOAT
    }
  }
  attr {
    key: "_output_shapes"
    value {
      list {
        shape {
          dim {
            size: -1
          }
          dim {
            size: 14
          }
          dim {
            size: 14
          }
          dim {
            size: 64
          }
        }
      }
    }
  }
}
node {
  name: "ps_1/Relu_1"
  op: "Relu"
  input: "ps_1/add_1"
  device: "/job:ps/task:1"
  attr {
    key: "T"
    value {
      type: DT_FLOAT
    }
  }
  attr {
    key: "_output_shapes"
    value {
      list {
        shape {
          dim {
            size: -1
          }
          dim {
            size: 14
          }
          dim {
            size: 14
          }
          dim {
            size: 64
          }
        }
      }
    }
  }
}
node {
  name: "ps_1/MaxPool_1"
  op: "MaxPool"
  input: "ps_1/Relu_1"
  device: "/job:ps/task:1"
  attr {
    key: "T"
    value {
      type: DT_FLOAT
    }
  }
  attr {
    key: "_output_shapes"
    value {
      list {
        shape {
          dim {
            size: -1
          }
          dim {
            size: 7
          }
          dim {
            size: 7
          }
          dim {
            size: 64
          }
        }
      }
    }
  }
  attr {
    key: "data_format"
    value {
      s: "NHWC"
    }
  }
  attr {
    key: "ksize"
    value {
      list {
        i: 1
        i: 2
        i: 2
        i: 1
      }
    }
  }
  attr {
    key: "padding"
    value {
      s: "SAME"
    }
  }
  attr {
    key: "strides"
    value {
      list {
        i: 1
        i: 2
        i: 2
        i: 1
      }
    }
  }
}
node {
  name: "ps_1/truncated_normal_2/shape"
  op: "Const"
  device: "/job:ps/task:1"
  attr {
    key: "_output_shapes"
    value {
      list {
        shape {
          dim {
            size: 2
          }
        }
      }
    }
  }
  attr {
    key: "dtype"
    value {
      type: DT_INT32
    }
  }
  attr {
    key: "value"
    value {
      tensor {
        dtype: DT_INT32
        tensor_shape {
          dim {
            size: 2
          }
        }
        tensor_content: "@\014\000\000\000\004\000\000"
      }
    }
  }
}
node {
  name: "ps_1/truncated_normal_2/mean"
  op: "Const"
  device: "/job:ps/task:1"
  attr {
    key: "_output_shapes"
    value {
      list {
        shape {
        }
      }
    }
  }
  attr {
    key: "dtype"
    value {
      type: DT_FLOAT
    }
  }
  attr {
    key: "value"
    value {
      tensor {
        dtype: DT_FLOAT
        tensor_shape {
        }
        float_val: 0.0
      }
    }
  }
}
node {
  name: "ps_1/truncated_normal_2/stddev"
  op: "Const"
  device: "/job:ps/task:1"
  attr {
    key: "_output_shapes"
    value {
      list {
        shape {
        }
      }
    }
  }
  attr {
    key: "dtype"
    value {
      type: DT_FLOAT
    }
  }
  attr {
    key: "value"
    value {
      tensor {
        dtype: DT_FLOAT
        tensor_shape {
        }
        float_val: 0.10000000149011612
      }
    }
  }
}
node {
  name: "ps_1/truncated_normal_2/TruncatedNormal"
  op: "TruncatedNormal"
  input: "ps_1/truncated_normal_2/shape"
  device: "/job:ps/task:1"
  attr {
    key: "T"
    value {
      type: DT_INT32
    }
  }
  attr {
    key: "_output_shapes"
    value {
      list {
        shape {
          dim {
            size: 3136
          }
          dim {
            size: 1024
          }
        }
      }
    }
  }
  attr {
    key: "dtype"
    value {
      type: DT_FLOAT
    }
  }
  attr {
    key: "seed"
    value {
      i: 2
    }
  }
  attr {
    key: "seed2"
    value {
      i: 132
    }
  }
}
node {
  name: "ps_1/truncated_normal_2/mul"
  op: "Mul"
  input: "ps_1/truncated_normal_2/TruncatedNormal"
  input: "ps_1/truncated_normal_2/stddev"
  device: "/job:ps/task:1"
  attr {
    key: "T"
    value {
      type: DT_FLOAT
    }
  }
  attr {
    key: "_output_shapes"
    value {
      list {
        shape {
          dim {
            size: 3136
          }
          dim {
            size: 1024
          }
        }
      }
    }
  }
}
node {
  name: "ps_1/truncated_normal_2"
  op: "Add"
  input: "ps_1/truncated_normal_2/mul"
  input: "ps_1/truncated_normal_2/mean"
  device: "/job:ps/task:1"
  attr {
    key: "T"
    value {
      type: DT_FLOAT
    }
  }
  attr {
    key: "_output_shapes"
    value {
      list {
        shape {
          dim {
            size: 3136
          }
          dim {
            size: 1024
          }
        }
      }
    }
  }
}
node {
  name: "ps_1/Variable_4"
  op: "VariableV2"
  device: "/job:ps/task:1"
  attr {
    key: "_output_shapes"
    value {
      list {
        shape {
          dim {
            size: 3136
          }
          dim {
            size: 1024
          }
        }
      }
    }
  }
  attr {
    key: "container"
    value {
      s: ""
    }
  }
  attr {
    key: "dtype"
    value {
      type: DT_FLOAT
    }
  }
  attr {
    key: "shape"
    value {
      shape {
        dim {
          size: 3136
        }
        dim {
          size: 1024
        }
      }
    }
  }
  attr {
    key: "shared_name"
    value {
      s: ""
    }
  }
}
node {
  name: "ps_1/Variable_4/Assign"
  op: "Assign"
  input: "ps_1/Variable_4"
  input: "ps_1/truncated_normal_2"
  device: "/job:ps/task:1"
  attr {
    key: "T"
    value {
      type: DT_FLOAT
    }
  }
  attr {
    key: "_class"
    value {
      list {
        s: "loc:@ps_1/Variable_4"
      }
    }
  }
  attr {
    key: "_output_shapes"
    value {
      list {
        shape {
          dim {
            size: 3136
          }
          dim {
            size: 1024
          }
        }
      }
    }
  }
  attr {
    key: "use_locking"
    value {
      b: true
    }
  }
  attr {
    key: "validate_shape"
    value {
      b: true
    }
  }
}
node {
  name: "ps_1/Variable_4/read"
  op: "Identity"
  input: "ps_1/Variable_4"
  device: "/job:ps/task:1"
  attr {
    key: "T"
    value {
      type: DT_FLOAT
    }
  }
  attr {
    key: "_class"
    value {
      list {
        s: "loc:@ps_1/Variable_4"
      }
    }
  }
  attr {
    key: "_output_shapes"
    value {
      list {
        shape {
          dim {
            size: 3136
          }
          dim {
            size: 1024
          }
        }
      }
    }
  }
}
node {
  name: "ps_1/Const_2"
  op: "Const"
  device: "/job:ps/task:1"
  attr {
    key: "_output_shapes"
    value {
      list {
        shape {
          dim {
            size: 1024
          }
        }
      }
    }
  }
  attr {
    key: "dtype"
    value {
      type: DT_FLOAT
    }
  }
  attr {
    key: "value"
    value {
      tensor {
        dtype: DT_FLOAT
        tensor_shape {
          dim {
            size: 1024
          }
        }
        float_val: 0.10000000149011612
      }
    }
  }
}
node {
  name: "ps_1/Variable_5"
  op: "VariableV2"
  device: "/job:ps/task:1"
  attr {
    key: "_output_shapes"
    value {
      list {
        shape {
          dim {
            size: 1024
          }
        }
      }
    }
  }
  attr {
    key: "container"
    value {
      s: ""
    }
  }
  attr {
    key: "dtype"
    value {
      type: DT_FLOAT
    }
  }
  attr {
    key: "shape"
    value {
      shape {
        dim {
          size: 1024
        }
      }
    }
  }
  attr {
    key: "shared_name"
    value {
      s: ""
    }
  }
}
node {
  name: "ps_1/Variable_5/Assign"
  op: "Assign"
  input: "ps_1/Variable_5"
  input: "ps_1/Const_2"
  device: "/job:ps/task:1"
  attr {
    key: "T"
    value {
      type: DT_FLOAT
    }
  }
  attr {
    key: "_class"
    value {
      list {
        s: "loc:@ps_1/Variable_5"
      }
    }
  }
  attr {
    key: "_output_shapes"
    value {
      list {
        shape {
          dim {
            size: 1024
          }
        }
      }
    }
  }
  attr {
    key: "use_locking"
    value {
      b: true
    }
  }
  attr {
    key: "validate_shape"
    value {
      b: true
    }
  }
}
node {
  name: "ps_1/Variable_5/read"
  op: "Identity"
  input: "ps_1/Variable_5"
  device: "/job:ps/task:1"
  attr {
    key: "T"
    value {
      type: DT_FLOAT
    }
  }
  attr {
    key: "_class"
    value {
      list {
        s: "loc:@ps_1/Variable_5"
      }
    }
  }
  attr {
    key: "_output_shapes"
    value {
      list {
        shape {
          dim {
            size: 1024
          }
        }
      }
    }
  }
}
node {
  name: "ps_1/Reshape_1/shape"
  op: "Const"
  device: "/job:ps/task:1"
  attr {
    key: "_output_shapes"
    value {
      list {
        shape {
          dim {
            size: 2
          }
        }
      }
    }
  }
  attr {
    key: "dtype"
    value {
      type: DT_INT32
    }
  }
  attr {
    key: "value"
    value {
      tensor {
        dtype: DT_INT32
        tensor_shape {
          dim {
            size: 2
          }
        }
        tensor_content: "\377\377\377\377@\014\000\000"
      }
    }
  }
}
node {
  name: "ps_1/Reshape_1"
  op: "Reshape"
  input: "ps_1/MaxPool_1"
  input: "ps_1/Reshape_1/shape"
  device: "/job:ps/task:1"
  attr {
    key: "T"
    value {
      type: DT_FLOAT
    }
  }
  attr {
    key: "Tshape"
    value {
      type: DT_INT32
    }
  }
  attr {
    key: "_output_shapes"
    value {
      list {
        shape {
          dim {
            size: -1
          }
          dim {
            size: 3136
          }
        }
      }
    }
  }
}
node {
  name: "ps_1/MatMul"
  op: "MatMul"
  input: "ps_1/Reshape_1"
  input: "ps_1/Variable_4/read"
  device: "/job:ps/task:1"
  attr {
    key: "T"
    value {
      type: DT_FLOAT
    }
  }
  attr {
    key: "_output_shapes"
    value {
      list {
        shape {
          dim {
            size: -1
          }
          dim {
            size: 1024
          }
        }
      }
    }
  }
  attr {
    key: "transpose_a"
    value {
      b: false
    }
  }
  attr {
    key: "transpose_b"
    value {
      b: false
    }
  }
}
node {
  name: "ps_1/add_2"
  op: "Add"
  input: "ps_1/MatMul"
  input: "ps_1/Variable_5/read"
  device: "/job:ps/task:1"
  attr {
    key: "T"
    value {
      type: DT_FLOAT
    }
  }
  attr {
    key: "_output_shapes"
    value {
      list {
        shape {
          dim {
            size: -1
          }
          dim {
            size: 1024
          }
        }
      }
    }
  }
}
node {
  name: "ps_1/Relu_2"
  op: "Relu"
  input: "ps_1/add_2"
  device: "/job:ps/task:1"
  attr {
    key: "T"
    value {
      type: DT_FLOAT
    }
  }
  attr {
    key: "_output_shapes"
    value {
      list {
        shape {
          dim {
            size: -1
          }
          dim {
            size: 1024
          }
        }
      }
    }
  }
}
node {
  name: "ps_1/Placeholder"
  op: "Placeholder"
  device: "/job:ps/task:1"
  attr {
    key: "_output_shapes"
    value {
      list {
        shape {
          unknown_rank: true
        }
      }
    }
  }
  attr {
    key: "dtype"
    value {
      type: DT_FLOAT
    }
  }
  attr {
    key: "shape"
    value {
      shape {
        unknown_rank: true
      }
    }
  }
}
node {
  name: "ps_1/dropout/Shape"
  op: "Shape"
  input: "ps_1/Relu_2"
  device: "/job:ps/task:1"
  attr {
    key: "T"
    value {
      type: DT_FLOAT
    }
  }
  attr {
    key: "_output_shapes"
    value {
      list {
        shape {
          dim {
            size: 2
          }
        }
      }
    }
  }
  attr {
    key: "out_type"
    value {
      type: DT_INT32
    }
  }
}
node {
  name: "ps_1/dropout/random_uniform/min"
  op: "Const"
  device: "/job:ps/task:1"
  attr {
    key: "_output_shapes"
    value {
      list {
        shape {
        }
      }
    }
  }
  attr {
    key: "dtype"
    value {
      type: DT_FLOAT
    }
  }
  attr {
    key: "value"
    value {
      tensor {
        dtype: DT_FLOAT
        tensor_shape {
        }
        float_val: 0.0
      }
    }
  }
}
node {
  name: "ps_1/dropout/random_uniform/max"
  op: "Const"
  device: "/job:ps/task:1"
  attr {
    key: "_output_shapes"
    value {
      list {
        shape {
        }
      }
    }
  }
  attr {
    key: "dtype"
    value {
      type: DT_FLOAT
    }
  }
  attr {
    key: "value"
    value {
      tensor {
        dtype: DT_FLOAT
        tensor_shape {
        }
        float_val: 1.0
      }
    }
  }
}
node {
  name: "ps_1/dropout/random_uniform/RandomUniform"
  op: "RandomUniform"
  input: "ps_1/dropout/Shape"
  device: "/job:ps/task:1"
  attr {
    key: "T"
    value {
      type: DT_INT32
    }
  }
  attr {
    key: "_output_shapes"
    value {
      list {
        shape {
          dim {
            size: -1
          }
          dim {
            size: 1024
          }
        }
      }
    }
  }
  attr {
    key: "dtype"
    value {
      type: DT_FLOAT
    }
  }
  attr {
    key: "seed"
    value {
      i: 2
    }
  }
  attr {
    key: "seed2"
    value {
      i: 151
    }
  }
}
node {
  name: "ps_1/dropout/random_uniform/sub"
  op: "Sub"
  input: "ps_1/dropout/random_uniform/max"
  input: "ps_1/dropout/random_uniform/min"
  device: "/job:ps/task:1"
  attr {
    key: "T"
    value {
      type: DT_FLOAT
    }
  }
  attr {
    key: "_output_shapes"
    value {
      list {
        shape {
        }
      }
    }
  }
}
node {
  name: "ps_1/dropout/random_uniform/mul"
  op: "Mul"
  input: "ps_1/dropout/random_uniform/RandomUniform"
  input: "ps_1/dropout/random_uniform/sub"
  device: "/job:ps/task:1"
  attr {
    key: "T"
    value {
      type: DT_FLOAT
    }
  }
  attr {
    key: "_output_shapes"
    value {
      list {
        shape {
          dim {
            size: -1
          }
          dim {
            size: 1024
          }
        }
      }
    }
  }
}
node {
  name: "ps_1/dropout/random_uniform"
  op: "Add"
  input: "ps_1/dropout/random_uniform/mul"
  input: "ps_1/dropout/random_uniform/min"
  device: "/job:ps/task:1"
  attr {
    key: "T"
    value {
      type: DT_FLOAT
    }
  }
  attr {
    key: "_output_shapes"
    value {
      list {
        shape {
          dim {
            size: -1
          }
          dim {
            size: 1024
          }
        }
      }
    }
  }
}
node {
  name: "ps_1/dropout/add"
  op: "Add"
  input: "ps_1/Placeholder"
  input: "ps_1/dropout/random_uniform"
  device: "/job:ps/task:1"
  attr {
    key: "T"
    value {
      type: DT_FLOAT
    }
  }
  attr {
    key: "_output_shapes"
    value {
      list {
        shape {
          unknown_rank: true
        }
      }
    }
  }
}
node {
  name: "ps_1/dropout/Floor"
  op: "Floor"
  input: "ps_1/dropout/add"
  device: "/job:ps/task:1"
  attr {
    key: "T"
    value {
      type: DT_FLOAT
    }
  }
  attr {
    key: "_output_shapes"
    value {
      list {
        shape {
          unknown_rank: true
        }
      }
    }
  }
}
node {
  name: "ps_1/dropout/div"
  op: "RealDiv"
  input: "ps_1/Relu_2"
  input: "ps_1/Placeholder"
  device: "/job:ps/task:1"
  attr {
    key: "T"
    value {
      type: DT_FLOAT
    }
  }
  attr {
    key: "_output_shapes"
    value {
      list {
        shape {
          unknown_rank: true
        }
      }
    }
  }
}
node {
  name: "ps_1/dropout/mul"
  op: "Mul"
  input: "ps_1/dropout/div"
  input: "ps_1/dropout/Floor"
  device: "/job:ps/task:1"
  attr {
    key: "T"
    value {
      type: DT_FLOAT
    }
  }
  attr {
    key: "_output_shapes"
    value {
      list {
        shape {
          dim {
            size: -1
          }
          dim {
            size: 1024
          }
        }
      }
    }
  }
}
node {
  name: "ps_1/truncated_normal_3/shape"
  op: "Const"
  device: "/job:ps/task:1"
  attr {
    key: "_output_shapes"
    value {
      list {
        shape {
          dim {
            size: 2
          }
        }
      }
    }
  }
  attr {
    key: "dtype"
    value {
      type: DT_INT32
    }
  }
  attr {
    key: "value"
    value {
      tensor {
        dtype: DT_INT32
        tensor_shape {
          dim {
            size: 2
          }
        }
        tensor_content: "\000\004\000\000\n\000\000\000"
      }
    }
  }
}
node {
  name: "ps_1/truncated_normal_3/mean"
  op: "Const"
  device: "/job:ps/task:1"
  attr {
    key: "_output_shapes"
    value {
      list {
        shape {
        }
      }
    }
  }
  attr {
    key: "dtype"
    value {
      type: DT_FLOAT
    }
  }
  attr {
    key: "value"
    value {
      tensor {
        dtype: DT_FLOAT
        tensor_shape {
        }
        float_val: 0.0
      }
    }
  }
}
node {
  name: "ps_1/truncated_normal_3/stddev"
  op: "Const"
  device: "/job:ps/task:1"
  attr {
    key: "_output_shapes"
    value {
      list {
        shape {
        }
      }
    }
  }
  attr {
    key: "dtype"
    value {
      type: DT_FLOAT
    }
  }
  attr {
    key: "value"
    value {
      tensor {
        dtype: DT_FLOAT
        tensor_shape {
        }
        float_val: 0.10000000149011612
      }
    }
  }
}
node {
  name: "ps_1/truncated_normal_3/TruncatedNormal"
  op: "TruncatedNormal"
  input: "ps_1/truncated_normal_3/shape"
  device: "/job:ps/task:1"
  attr {
    key: "T"
    value {
      type: DT_INT32
    }
  }
  attr {
    key: "_output_shapes"
    value {
      list {
        shape {
          dim {
            size: 1024
          }
          dim {
            size: 10
          }
        }
      }
    }
  }
  attr {
    key: "dtype"
    value {
      type: DT_FLOAT
    }
  }
  attr {
    key: "seed"
    value {
      i: 2
    }
  }
  attr {
    key: "seed2"
    value {
      i: 162
    }
  }
}
node {
  name: "ps_1/truncated_normal_3/mul"
  op: "Mul"
  input: "ps_1/truncated_normal_3/TruncatedNormal"
  input: "ps_1/truncated_normal_3/stddev"
  device: "/job:ps/task:1"
  attr {
    key: "T"
    value {
      type: DT_FLOAT
    }
  }
  attr {
    key: "_output_shapes"
    value {
      list {
        shape {
          dim {
            size: 1024
          }
          dim {
            size: 10
          }
        }
      }
    }
  }
}
node {
  name: "ps_1/truncated_normal_3"
  op: "Add"
  input: "ps_1/truncated_normal_3/mul"
  input: "ps_1/truncated_normal_3/mean"
  device: "/job:ps/task:1"
  attr {
    key: "T"
    value {
      type: DT_FLOAT
    }
  }
  attr {
    key: "_output_shapes"
    value {
      list {
        shape {
          dim {
            size: 1024
          }
          dim {
            size: 10
          }
        }
      }
    }
  }
}
node {
  name: "ps_1/Variable_6"
  op: "VariableV2"
  device: "/job:ps/task:1"
  attr {
    key: "_output_shapes"
    value {
      list {
        shape {
          dim {
            size: 1024
          }
          dim {
            size: 10
          }
        }
      }
    }
  }
  attr {
    key: "container"
    value {
      s: ""
    }
  }
  attr {
    key: "dtype"
    value {
      type: DT_FLOAT
    }
  }
  attr {
    key: "shape"
    value {
      shape {
        dim {
          size: 1024
        }
        dim {
          size: 10
        }
      }
    }
  }
  attr {
    key: "shared_name"
    value {
      s: ""
    }
  }
}
node {
  name: "ps_1/Variable_6/Assign"
  op: "Assign"
  input: "ps_1/Variable_6"
  input: "ps_1/truncated_normal_3"
  device: "/job:ps/task:1"
  attr {
    key: "T"
    value {
      type: DT_FLOAT
    }
  }
  attr {
    key: "_class"
    value {
      list {
        s: "loc:@ps_1/Variable_6"
      }
    }
  }
  attr {
    key: "_output_shapes"
    value {
      list {
        shape {
          dim {
            size: 1024
          }
          dim {
            size: 10
          }
        }
      }
    }
  }
  attr {
    key: "use_locking"
    value {
      b: true
    }
  }
  attr {
    key: "validate_shape"
    value {
      b: true
    }
  }
}
node {
  name: "ps_1/Variable_6/read"
  op: "Identity"
  input: "ps_1/Variable_6"
  device: "/job:ps/task:1"
  attr {
    key: "T"
    value {
      type: DT_FLOAT
    }
  }
  attr {
    key: "_class"
    value {
      list {
        s: "loc:@ps_1/Variable_6"
      }
    }
  }
  attr {
    key: "_output_shapes"
    value {
      list {
        shape {
          dim {
            size: 1024
          }
          dim {
            size: 10
          }
        }
      }
    }
  }
}
node {
  name: "ps_1/Const_3"
  op: "Const"
  device: "/job:ps/task:1"
  attr {
    key: "_output_shapes"
    value {
      list {
        shape {
          dim {
            size: 10
          }
        }
      }
    }
  }
  attr {
    key: "dtype"
    value {
      type: DT_FLOAT
    }
  }
  attr {
    key: "value"
    value {
      tensor {
        dtype: DT_FLOAT
        tensor_shape {
          dim {
            size: 10
          }
        }
        float_val: 0.10000000149011612
      }
    }
  }
}
node {
  name: "ps_1/Variable_7"
  op: "VariableV2"
  device: "/job:ps/task:1"
  attr {
    key: "_output_shapes"
    value {
      list {
        shape {
          dim {
            size: 10
          }
        }
      }
    }
  }
  attr {
    key: "container"
    value {
      s: ""
    }
  }
  attr {
    key: "dtype"
    value {
      type: DT_FLOAT
    }
  }
  attr {
    key: "shape"
    value {
      shape {
        dim {
          size: 10
        }
      }
    }
  }
  attr {
    key: "shared_name"
    value {
      s: ""
    }
  }
}
node {
  name: "ps_1/Variable_7/Assign"
  op: "Assign"
  input: "ps_1/Variable_7"
  input: "ps_1/Const_3"
  device: "/job:ps/task:1"
  attr {
    key: "T"
    value {
      type: DT_FLOAT
    }
  }
  attr {
    key: "_class"
    value {
      list {
        s: "loc:@ps_1/Variable_7"
      }
    }
  }
  attr {
    key: "_output_shapes"
    value {
      list {
        shape {
          dim {
            size: 10
          }
        }
      }
    }
  }
  attr {
    key: "use_locking"
    value {
      b: true
    }
  }
  attr {
    key: "validate_shape"
    value {
      b: true
    }
  }
}
node {
  name: "ps_1/Variable_7/read"
  op: "Identity"
  input: "ps_1/Variable_7"
  device: "/job:ps/task:1"
  attr {
    key: "T"
    value {
      type: DT_FLOAT
    }
  }
  attr {
    key: "_class"
    value {
      list {
        s: "loc:@ps_1/Variable_7"
      }
    }
  }
  attr {
    key: "_output_shapes"
    value {
      list {
        shape {
          dim {
            size: 10
          }
        }
      }
    }
  }
}
node {
  name: "ps_1/MatMul_1"
  op: "MatMul"
  input: "ps_1/dropout/mul"
  input: "ps_1/Variable_6/read"
  device: "/job:ps/task:1"
  attr {
    key: "T"
    value {
      type: DT_FLOAT
    }
  }
  attr {
    key: "_output_shapes"
    value {
      list {
        shape {
          dim {
            size: -1
          }
          dim {
            size: 10
          }
        }
      }
    }
  }
  attr {
    key: "transpose_a"
    value {
      b: false
    }
  }
  attr {
    key: "transpose_b"
    value {
      b: false
    }
  }
}
node {
  name: "ps_1/add_3"
  op: "Add"
  input: "ps_1/MatMul_1"
  input: "ps_1/Variable_7/read"
  device: "/job:ps/task:1"
  attr {
    key: "T"
    value {
      type: DT_FLOAT
    }
  }
  attr {
    key: "_output_shapes"
    value {
      list {
        shape {
          dim {
            size: -1
          }
          dim {
            size: 10
          }
        }
      }
    }
  }
}
node {
  name: "copy_ps_1/truncated_normal/shape"
  op: "Const"
  device: "/job:ps/task:1"
  attr {
    key: "_output_shapes"
    value {
      list {
        shape {
          dim {
            size: 4
          }
        }
      }
    }
  }
  attr {
    key: "dtype"
    value {
      type: DT_INT32
    }
  }
  attr {
    key: "value"
    value {
      tensor {
        dtype: DT_INT32
        tensor_shape {
          dim {
            size: 4
          }
        }
        tensor_content: "\005\000\000\000\005\000\000\000\001\000\000\000 \000\000\000"
      }
    }
  }
}
node {
  name: "copy_ps_1/truncated_normal/mean"
  op: "Const"
  device: "/job:ps/task:1"
  attr {
    key: "_output_shapes"
    value {
      list {
        shape {
        }
      }
    }
  }
  attr {
    key: "dtype"
    value {
      type: DT_FLOAT
    }
  }
  attr {
    key: "value"
    value {
      tensor {
        dtype: DT_FLOAT
        tensor_shape {
        }
        float_val: 0.0
      }
    }
  }
}
node {
  name: "copy_ps_1/truncated_normal/stddev"
  op: "Const"
  device: "/job:ps/task:1"
  attr {
    key: "_output_shapes"
    value {
      list {
        shape {
        }
      }
    }
  }
  attr {
    key: "dtype"
    value {
      type: DT_FLOAT
    }
  }
  attr {
    key: "value"
    value {
      tensor {
        dtype: DT_FLOAT
        tensor_shape {
        }
        float_val: 0.10000000149011612
      }
    }
  }
}
node {
  name: "copy_ps_1/truncated_normal/TruncatedNormal"
  op: "TruncatedNormal"
  input: "copy_ps_1/truncated_normal/shape"
  device: "/job:ps/task:1"
  attr {
    key: "T"
    value {
      type: DT_INT32
    }
  }
  attr {
    key: "_output_shapes"
    value {
      list {
        shape {
          dim {
            size: 5
          }
          dim {
            size: 5
          }
          dim {
            size: 1
          }
          dim {
            size: 32
          }
        }
      }
    }
  }
  attr {
    key: "dtype"
    value {
      type: DT_FLOAT
    }
  }
  attr {
    key: "seed"
    value {
      i: 2
    }
  }
  attr {
    key: "seed2"
    value {
      i: 177
    }
  }
}
node {
  name: "copy_ps_1/truncated_normal/mul"
  op: "Mul"
  input: "copy_ps_1/truncated_normal/TruncatedNormal"
  input: "copy_ps_1/truncated_normal/stddev"
  device: "/job:ps/task:1"
  attr {
    key: "T"
    value {
      type: DT_FLOAT
    }
  }
  attr {
    key: "_output_shapes"
    value {
      list {
        shape {
          dim {
            size: 5
          }
          dim {
            size: 5
          }
          dim {
            size: 1
          }
          dim {
            size: 32
          }
        }
      }
    }
  }
}
node {
  name: "copy_ps_1/truncated_normal"
  op: "Add"
  input: "copy_ps_1/truncated_normal/mul"
  input: "copy_ps_1/truncated_normal/mean"
  device: "/job:ps/task:1"
  attr {
    key: "T"
    value {
      type: DT_FLOAT
    }
  }
  attr {
    key: "_output_shapes"
    value {
      list {
        shape {
          dim {
            size: 5
          }
          dim {
            size: 5
          }
          dim {
            size: 1
          }
          dim {
            size: 32
          }
        }
      }
    }
  }
}
node {
  name: "copy_ps_1/Variable"
  op: "VariableV2"
  device: "/job:ps/task:1"
  attr {
    key: "_output_shapes"
    value {
      list {
        shape {
          dim {
            size: 5
          }
          dim {
            size: 5
          }
          dim {
            size: 1
          }
          dim {
            size: 32
          }
        }
      }
    }
  }
  attr {
    key: "container"
    value {
      s: ""
    }
  }
  attr {
    key: "dtype"
    value {
      type: DT_FLOAT
    }
  }
  attr {
    key: "shape"
    value {
      shape {
        dim {
          size: 5
        }
        dim {
          size: 5
        }
        dim {
          size: 1
        }
        dim {
          size: 32
        }
      }
    }
  }
  attr {
    key: "shared_name"
    value {
      s: ""
    }
  }
}
node {
  name: "copy_ps_1/Variable/Assign"
  op: "Assign"
  input: "copy_ps_1/Variable"
  input: "copy_ps_1/truncated_normal"
  device: "/job:ps/task:1"
  attr {
    key: "T"
    value {
      type: DT_FLOAT
    }
  }
  attr {
    key: "_class"
    value {
      list {
        s: "loc:@copy_ps_1/Variable"
      }
    }
  }
  attr {
    key: "_output_shapes"
    value {
      list {
        shape {
          dim {
            size: 5
          }
          dim {
            size: 5
          }
          dim {
            size: 1
          }
          dim {
            size: 32
          }
        }
      }
    }
  }
  attr {
    key: "use_locking"
    value {
      b: true
    }
  }
  attr {
    key: "validate_shape"
    value {
      b: true
    }
  }
}
node {
  name: "copy_ps_1/Variable/read"
  op: "Identity"
  input: "copy_ps_1/Variable"
  device: "/job:ps/task:1"
  attr {
    key: "T"
    value {
      type: DT_FLOAT
    }
  }
  attr {
    key: "_class"
    value {
      list {
        s: "loc:@copy_ps_1/Variable"
      }
    }
  }
  attr {
    key: "_output_shapes"
    value {
      list {
        shape {
          dim {
            size: 5
          }
          dim {
            size: 5
          }
          dim {
            size: 1
          }
          dim {
            size: 32
          }
        }
      }
    }
  }
}
node {
  name: "copy_ps_1/Const"
  op: "Const"
  device: "/job:ps/task:1"
  attr {
    key: "_output_shapes"
    value {
      list {
        shape {
          dim {
            size: 32
          }
        }
      }
    }
  }
  attr {
    key: "dtype"
    value {
      type: DT_FLOAT
    }
  }
  attr {
    key: "value"
    value {
      tensor {
        dtype: DT_FLOAT
        tensor_shape {
          dim {
            size: 32
          }
        }
        float_val: 0.10000000149011612
      }
    }
  }
}
node {
  name: "copy_ps_1/Variable_1"
  op: "VariableV2"
  device: "/job:ps/task:1"
  attr {
    key: "_output_shapes"
    value {
      list {
        shape {
          dim {
            size: 32
          }
        }
      }
    }
  }
  attr {
    key: "container"
    value {
      s: ""
    }
  }
  attr {
    key: "dtype"
    value {
      type: DT_FLOAT
    }
  }
  attr {
    key: "shape"
    value {
      shape {
        dim {
          size: 32
        }
      }
    }
  }
  attr {
    key: "shared_name"
    value {
      s: ""
    }
  }
}
node {
  name: "copy_ps_1/Variable_1/Assign"
  op: "Assign"
  input: "copy_ps_1/Variable_1"
  input: "copy_ps_1/Const"
  device: "/job:ps/task:1"
  attr {
    key: "T"
    value {
      type: DT_FLOAT
    }
  }
  attr {
    key: "_class"
    value {
      list {
        s: "loc:@copy_ps_1/Variable_1"
      }
    }
  }
  attr {
    key: "_output_shapes"
    value {
      list {
        shape {
          dim {
            size: 32
          }
        }
      }
    }
  }
  attr {
    key: "use_locking"
    value {
      b: true
    }
  }
  attr {
    key: "validate_shape"
    value {
      b: true
    }
  }
}
node {
  name: "copy_ps_1/Variable_1/read"
  op: "Identity"
  input: "copy_ps_1/Variable_1"
  device: "/job:ps/task:1"
  attr {
    key: "T"
    value {
      type: DT_FLOAT
    }
  }
  attr {
    key: "_class"
    value {
      list {
        s: "loc:@copy_ps_1/Variable_1"
      }
    }
  }
  attr {
    key: "_output_shapes"
    value {
      list {
        shape {
          dim {
            size: 32
          }
        }
      }
    }
  }
}
node {
  name: "copy_ps_1/Reshape/shape"
  op: "Const"
  device: "/job:ps/task:1"
  attr {
    key: "_output_shapes"
    value {
      list {
        shape {
          dim {
            size: 4
          }
        }
      }
    }
  }
  attr {
    key: "dtype"
    value {
      type: DT_INT32
    }
  }
  attr {
    key: "value"
    value {
      tensor {
        dtype: DT_INT32
        tensor_shape {
          dim {
            size: 4
          }
        }
        tensor_content: "\377\377\377\377\034\000\000\000\034\000\000\000\001\000\000\000"
      }
    }
  }
}
node {
  name: "copy_ps_1/Reshape"
  op: "Reshape"
  input: "Placeholder_2"
  input: "copy_ps_1/Reshape/shape"
  device: "/job:ps/task:1"
  attr {
    key: "T"
    value {
      type: DT_FLOAT
    }
  }
  attr {
    key: "Tshape"
    value {
      type: DT_INT32
    }
  }
  attr {
    key: "_output_shapes"
    value {
      list {
        shape {
          dim {
            size: -1
          }
          dim {
            size: 28
          }
          dim {
            size: 28
          }
          dim {
            size: 1
          }
        }
      }
    }
  }
}
node {
  name: "copy_ps_1/Conv2D"
  op: "Conv2D"
  input: "copy_ps_1/Reshape"
  input: "copy_ps_1/Variable/read"
  device: "/job:ps/task:1"
  attr {
    key: "T"
    value {
      type: DT_FLOAT
    }
  }
  attr {
    key: "_output_shapes"
    value {
      list {
        shape {
          dim {
            size: -1
          }
          dim {
            size: 28
          }
          dim {
            size: 28
          }
          dim {
            size: 32
          }
        }
      }
    }
  }
  attr {
    key: "data_format"
    value {
      s: "NHWC"
    }
  }
  attr {
    key: "padding"
    value {
      s: "SAME"
    }
  }
  attr {
    key: "strides"
    value {
      list {
        i: 1
        i: 1
        i: 1
        i: 1
      }
    }
  }
  attr {
    key: "use_cudnn_on_gpu"
    value {
      b: true
    }
  }
}
node {
  name: "copy_ps_1/add"
  op: "Add"
  input: "copy_ps_1/Conv2D"
  input: "copy_ps_1/Variable_1/read"
  device: "/job:ps/task:1"
  attr {
    key: "T"
    value {
      type: DT_FLOAT
    }
  }
  attr {
    key: "_output_shapes"
    value {
      list {
        shape {
          dim {
            size: -1
          }
          dim {
            size: 28
          }
          dim {
            size: 28
          }
          dim {
            size: 32
          }
        }
      }
    }
  }
}
node {
  name: "copy_ps_1/Relu"
  op: "Relu"
  input: "copy_ps_1/add"
  device: "/job:ps/task:1"
  attr {
    key: "T"
    value {
      type: DT_FLOAT
    }
  }
  attr {
    key: "_output_shapes"
    value {
      list {
        shape {
          dim {
            size: -1
          }
          dim {
            size: 28
          }
          dim {
            size: 28
          }
          dim {
            size: 32
          }
        }
      }
    }
  }
}
node {
  name: "copy_ps_1/MaxPool"
  op: "MaxPool"
  input: "copy_ps_1/Relu"
  device: "/job:ps/task:1"
  attr {
    key: "T"
    value {
      type: DT_FLOAT
    }
  }
  attr {
    key: "_output_shapes"
    value {
      list {
        shape {
          dim {
            size: -1
          }
          dim {
            size: 14
          }
          dim {
            size: 14
          }
          dim {
            size: 32
          }
        }
      }
    }
  }
  attr {
    key: "data_format"
    value {
      s: "NHWC"
    }
  }
  attr {
    key: "ksize"
    value {
      list {
        i: 1
        i: 2
        i: 2
        i: 1
      }
    }
  }
  attr {
    key: "padding"
    value {
      s: "SAME"
    }
  }
  attr {
    key: "strides"
    value {
      list {
        i: 1
        i: 2
        i: 2
        i: 1
      }
    }
  }
}
node {
  name: "copy_ps_1/truncated_normal_1/shape"
  op: "Const"
  device: "/job:ps/task:1"
  attr {
    key: "_output_shapes"
    value {
      list {
        shape {
          dim {
            size: 4
          }
        }
      }
    }
  }
  attr {
    key: "dtype"
    value {
      type: DT_INT32
    }
  }
  attr {
    key: "value"
    value {
      tensor {
        dtype: DT_INT32
        tensor_shape {
          dim {
            size: 4
          }
        }
        tensor_content: "\005\000\000\000\005\000\000\000 \000\000\000@\000\000\000"
      }
    }
  }
}
node {
  name: "copy_ps_1/truncated_normal_1/mean"
  op: "Const"
  device: "/job:ps/task:1"
  attr {
    key: "_output_shapes"
    value {
      list {
        shape {
        }
      }
    }
  }
  attr {
    key: "dtype"
    value {
      type: DT_FLOAT
    }
  }
  attr {
    key: "value"
    value {
      tensor {
        dtype: DT_FLOAT
        tensor_shape {
        }
        float_val: 0.0
      }
    }
  }
}
node {
  name: "copy_ps_1/truncated_normal_1/stddev"
  op: "Const"
  device: "/job:ps/task:1"
  attr {
    key: "_output_shapes"
    value {
      list {
        shape {
        }
      }
    }
  }
  attr {
    key: "dtype"
    value {
      type: DT_FLOAT
    }
  }
  attr {
    key: "value"
    value {
      tensor {
        dtype: DT_FLOAT
        tensor_shape {
        }
        float_val: 0.10000000149011612
      }
    }
  }
}
node {
  name: "copy_ps_1/truncated_normal_1/TruncatedNormal"
  op: "TruncatedNormal"
  input: "copy_ps_1/truncated_normal_1/shape"
  device: "/job:ps/task:1"
  attr {
    key: "T"
    value {
      type: DT_INT32
    }
  }
  attr {
    key: "_output_shapes"
    value {
      list {
        shape {
          dim {
            size: 5
          }
          dim {
            size: 5
          }
          dim {
            size: 32
          }
          dim {
            size: 64
          }
        }
      }
    }
  }
  attr {
    key: "dtype"
    value {
      type: DT_FLOAT
    }
  }
  attr {
    key: "seed"
    value {
      i: 2
    }
  }
  attr {
    key: "seed2"
    value {
      i: 196
    }
  }
}
node {
  name: "copy_ps_1/truncated_normal_1/mul"
  op: "Mul"
  input: "copy_ps_1/truncated_normal_1/TruncatedNormal"
  input: "copy_ps_1/truncated_normal_1/stddev"
  device: "/job:ps/task:1"
  attr {
    key: "T"
    value {
      type: DT_FLOAT
    }
  }
  attr {
    key: "_output_shapes"
    value {
      list {
        shape {
          dim {
            size: 5
          }
          dim {
            size: 5
          }
          dim {
            size: 32
          }
          dim {
            size: 64
          }
        }
      }
    }
  }
}
node {
  name: "copy_ps_1/truncated_normal_1"
  op: "Add"
  input: "copy_ps_1/truncated_normal_1/mul"
  input: "copy_ps_1/truncated_normal_1/mean"
  device: "/job:ps/task:1"
  attr {
    key: "T"
    value {
      type: DT_FLOAT
    }
  }
  attr {
    key: "_output_shapes"
    value {
      list {
        shape {
          dim {
            size: 5
          }
          dim {
            size: 5
          }
          dim {
            size: 32
          }
          dim {
            size: 64
          }
        }
      }
    }
  }
}
node {
  name: "copy_ps_1/Variable_2"
  op: "VariableV2"
  device: "/job:ps/task:1"
  attr {
    key: "_output_shapes"
    value {
      list {
        shape {
          dim {
            size: 5
          }
          dim {
            size: 5
          }
          dim {
            size: 32
          }
          dim {
            size: 64
          }
        }
      }
    }
  }
  attr {
    key: "container"
    value {
      s: ""
    }
  }
  attr {
    key: "dtype"
    value {
      type: DT_FLOAT
    }
  }
  attr {
    key: "shape"
    value {
      shape {
        dim {
          size: 5
        }
        dim {
          size: 5
        }
        dim {
          size: 32
        }
        dim {
          size: 64
        }
      }
    }
  }
  attr {
    key: "shared_name"
    value {
      s: ""
    }
  }
}
node {
  name: "copy_ps_1/Variable_2/Assign"
  op: "Assign"
  input: "copy_ps_1/Variable_2"
  input: "copy_ps_1/truncated_normal_1"
  device: "/job:ps/task:1"
  attr {
    key: "T"
    value {
      type: DT_FLOAT
    }
  }
  attr {
    key: "_class"
    value {
      list {
        s: "loc:@copy_ps_1/Variable_2"
      }
    }
  }
  attr {
    key: "_output_shapes"
    value {
      list {
        shape {
          dim {
            size: 5
          }
          dim {
            size: 5
          }
          dim {
            size: 32
          }
          dim {
            size: 64
          }
        }
      }
    }
  }
  attr {
    key: "use_locking"
    value {
      b: true
    }
  }
  attr {
    key: "validate_shape"
    value {
      b: true
    }
  }
}
node {
  name: "copy_ps_1/Variable_2/read"
  op: "Identity"
  input: "copy_ps_1/Variable_2"
  device: "/job:ps/task:1"
  attr {
    key: "T"
    value {
      type: DT_FLOAT
    }
  }
  attr {
    key: "_class"
    value {
      list {
        s: "loc:@copy_ps_1/Variable_2"
      }
    }
  }
  attr {
    key: "_output_shapes"
    value {
      list {
        shape {
          dim {
            size: 5
          }
          dim {
            size: 5
          }
          dim {
            size: 32
          }
          dim {
            size: 64
          }
        }
      }
    }
  }
}
node {
  name: "copy_ps_1/Const_1"
  op: "Const"
  device: "/job:ps/task:1"
  attr {
    key: "_output_shapes"
    value {
      list {
        shape {
          dim {
            size: 64
          }
        }
      }
    }
  }
  attr {
    key: "dtype"
    value {
      type: DT_FLOAT
    }
  }
  attr {
    key: "value"
    value {
      tensor {
        dtype: DT_FLOAT
        tensor_shape {
          dim {
            size: 64
          }
        }
        float_val: 0.10000000149011612
      }
    }
  }
}
node {
  name: "copy_ps_1/Variable_3"
  op: "VariableV2"
  device: "/job:ps/task:1"
  attr {
    key: "_output_shapes"
    value {
      list {
        shape {
          dim {
            size: 64
          }
        }
      }
    }
  }
  attr {
    key: "container"
    value {
      s: ""
    }
  }
  attr {
    key: "dtype"
    value {
      type: DT_FLOAT
    }
  }
  attr {
    key: "shape"
    value {
      shape {
        dim {
          size: 64
        }
      }
    }
  }
  attr {
    key: "shared_name"
    value {
      s: ""
    }
  }
}
node {
  name: "copy_ps_1/Variable_3/Assign"
  op: "Assign"
  input: "copy_ps_1/Variable_3"
  input: "copy_ps_1/Const_1"
  device: "/job:ps/task:1"
  attr {
    key: "T"
    value {
      type: DT_FLOAT
    }
  }
  attr {
    key: "_class"
    value {
      list {
        s: "loc:@copy_ps_1/Variable_3"
      }
    }
  }
  attr {
    key: "_output_shapes"
    value {
      list {
        shape {
          dim {
            size: 64
          }
        }
      }
    }
  }
  attr {
    key: "use_locking"
    value {
      b: true
    }
  }
  attr {
    key: "validate_shape"
    value {
      b: true
    }
  }
}
node {
  name: "copy_ps_1/Variable_3/read"
  op: "Identity"
  input: "copy_ps_1/Variable_3"
  device: "/job:ps/task:1"
  attr {
    key: "T"
    value {
      type: DT_FLOAT
    }
  }
  attr {
    key: "_class"
    value {
      list {
        s: "loc:@copy_ps_1/Variable_3"
      }
    }
  }
  attr {
    key: "_output_shapes"
    value {
      list {
        shape {
          dim {
            size: 64
          }
        }
      }
    }
  }
}
node {
  name: "copy_ps_1/Conv2D_1"
  op: "Conv2D"
  input: "copy_ps_1/MaxPool"
  input: "copy_ps_1/Variable_2/read"
  device: "/job:ps/task:1"
  attr {
    key: "T"
    value {
      type: DT_FLOAT
    }
  }
  attr {
    key: "_output_shapes"
    value {
      list {
        shape {
          dim {
            size: -1
          }
          dim {
            size: 14
          }
          dim {
            size: 14
          }
          dim {
            size: 64
          }
        }
      }
    }
  }
  attr {
    key: "data_format"
    value {
      s: "NHWC"
    }
  }
  attr {
    key: "padding"
    value {
      s: "SAME"
    }
  }
  attr {
    key: "strides"
    value {
      list {
        i: 1
        i: 1
        i: 1
        i: 1
      }
    }
  }
  attr {
    key: "use_cudnn_on_gpu"
    value {
      b: true
    }
  }
}
node {
  name: "copy_ps_1/add_1"
  op: "Add"
  input: "copy_ps_1/Conv2D_1"
  input: "copy_ps_1/Variable_3/read"
  device: "/job:ps/task:1"
  attr {
    key: "T"
    value {
      type: DT_FLOAT
    }
  }
  attr {
    key: "_output_shapes"
    value {
      list {
        shape {
          dim {
            size: -1
          }
          dim {
            size: 14
          }
          dim {
            size: 14
          }
          dim {
            size: 64
          }
        }
      }
    }
  }
}
node {
  name: "copy_ps_1/Relu_1"
  op: "Relu"
  input: "copy_ps_1/add_1"
  device: "/job:ps/task:1"
  attr {
    key: "T"
    value {
      type: DT_FLOAT
    }
  }
  attr {
    key: "_output_shapes"
    value {
      list {
        shape {
          dim {
            size: -1
          }
          dim {
            size: 14
          }
          dim {
            size: 14
          }
          dim {
            size: 64
          }
        }
      }
    }
  }
}
node {
  name: "copy_ps_1/MaxPool_1"
  op: "MaxPool"
  input: "copy_ps_1/Relu_1"
  device: "/job:ps/task:1"
  attr {
    key: "T"
    value {
      type: DT_FLOAT
    }
  }
  attr {
    key: "_output_shapes"
    value {
      list {
        shape {
          dim {
            size: -1
          }
          dim {
            size: 7
          }
          dim {
            size: 7
          }
          dim {
            size: 64
          }
        }
      }
    }
  }
  attr {
    key: "data_format"
    value {
      s: "NHWC"
    }
  }
  attr {
    key: "ksize"
    value {
      list {
        i: 1
        i: 2
        i: 2
        i: 1
      }
    }
  }
  attr {
    key: "padding"
    value {
      s: "SAME"
    }
  }
  attr {
    key: "strides"
    value {
      list {
        i: 1
        i: 2
        i: 2
        i: 1
      }
    }
  }
}
node {
  name: "copy_ps_1/truncated_normal_2/shape"
  op: "Const"
  device: "/job:ps/task:1"
  attr {
    key: "_output_shapes"
    value {
      list {
        shape {
          dim {
            size: 2
          }
        }
      }
    }
  }
  attr {
    key: "dtype"
    value {
      type: DT_INT32
    }
  }
  attr {
    key: "value"
    value {
      tensor {
        dtype: DT_INT32
        tensor_shape {
          dim {
            size: 2
          }
        }
        tensor_content: "@\014\000\000\000\004\000\000"
      }
    }
  }
}
node {
  name: "copy_ps_1/truncated_normal_2/mean"
  op: "Const"
  device: "/job:ps/task:1"
  attr {
    key: "_output_shapes"
    value {
      list {
        shape {
        }
      }
    }
  }
  attr {
    key: "dtype"
    value {
      type: DT_FLOAT
    }
  }
  attr {
    key: "value"
    value {
      tensor {
        dtype: DT_FLOAT
        tensor_shape {
        }
        float_val: 0.0
      }
    }
  }
}
node {
  name: "copy_ps_1/truncated_normal_2/stddev"
  op: "Const"
  device: "/job:ps/task:1"
  attr {
    key: "_output_shapes"
    value {
      list {
        shape {
        }
      }
    }
  }
  attr {
    key: "dtype"
    value {
      type: DT_FLOAT
    }
  }
  attr {
    key: "value"
    value {
      tensor {
        dtype: DT_FLOAT
        tensor_shape {
        }
        float_val: 0.10000000149011612
      }
    }
  }
}
node {
  name: "copy_ps_1/truncated_normal_2/TruncatedNormal"
  op: "TruncatedNormal"
  input: "copy_ps_1/truncated_normal_2/shape"
  device: "/job:ps/task:1"
  attr {
    key: "T"
    value {
      type: DT_INT32
    }
  }
  attr {
    key: "_output_shapes"
    value {
      list {
        shape {
          dim {
            size: 3136
          }
          dim {
            size: 1024
          }
        }
      }
    }
  }
  attr {
    key: "dtype"
    value {
      type: DT_FLOAT
    }
  }
  attr {
    key: "seed"
    value {
      i: 2
    }
  }
  attr {
    key: "seed2"
    value {
      i: 213
    }
  }
}
node {
  name: "copy_ps_1/truncated_normal_2/mul"
  op: "Mul"
  input: "copy_ps_1/truncated_normal_2/TruncatedNormal"
  input: "copy_ps_1/truncated_normal_2/stddev"
  device: "/job:ps/task:1"
  attr {
    key: "T"
    value {
      type: DT_FLOAT
    }
  }
  attr {
    key: "_output_shapes"
    value {
      list {
        shape {
          dim {
            size: 3136
          }
          dim {
            size: 1024
          }
        }
      }
    }
  }
}
node {
  name: "copy_ps_1/truncated_normal_2"
  op: "Add"
  input: "copy_ps_1/truncated_normal_2/mul"
  input: "copy_ps_1/truncated_normal_2/mean"
  device: "/job:ps/task:1"
  attr {
    key: "T"
    value {
      type: DT_FLOAT
    }
  }
  attr {
    key: "_output_shapes"
    value {
      list {
        shape {
          dim {
            size: 3136
          }
          dim {
            size: 1024
          }
        }
      }
    }
  }
}
node {
  name: "copy_ps_1/Variable_4"
  op: "VariableV2"
  device: "/job:ps/task:1"
  attr {
    key: "_output_shapes"
    value {
      list {
        shape {
          dim {
            size: 3136
          }
          dim {
            size: 1024
          }
        }
      }
    }
  }
  attr {
    key: "container"
    value {
      s: ""
    }
  }
  attr {
    key: "dtype"
    value {
      type: DT_FLOAT
    }
  }
  attr {
    key: "shape"
    value {
      shape {
        dim {
          size: 3136
        }
        dim {
          size: 1024
        }
      }
    }
  }
  attr {
    key: "shared_name"
    value {
      s: ""
    }
  }
}
node {
  name: "copy_ps_1/Variable_4/Assign"
  op: "Assign"
  input: "copy_ps_1/Variable_4"
  input: "copy_ps_1/truncated_normal_2"
  device: "/job:ps/task:1"
  attr {
    key: "T"
    value {
      type: DT_FLOAT
    }
  }
  attr {
    key: "_class"
    value {
      list {
        s: "loc:@copy_ps_1/Variable_4"
      }
    }
  }
  attr {
    key: "_output_shapes"
    value {
      list {
        shape {
          dim {
            size: 3136
          }
          dim {
            size: 1024
          }
        }
      }
    }
  }
  attr {
    key: "use_locking"
    value {
      b: true
    }
  }
  attr {
    key: "validate_shape"
    value {
      b: true
    }
  }
}
node {
  name: "copy_ps_1/Variable_4/read"
  op: "Identity"
  input: "copy_ps_1/Variable_4"
  device: "/job:ps/task:1"
  attr {
    key: "T"
    value {
      type: DT_FLOAT
    }
  }
  attr {
    key: "_class"
    value {
      list {
        s: "loc:@copy_ps_1/Variable_4"
      }
    }
  }
  attr {
    key: "_output_shapes"
    value {
      list {
        shape {
          dim {
            size: 3136
          }
          dim {
            size: 1024
          }
        }
      }
    }
  }
}
node {
  name: "copy_ps_1/Const_2"
  op: "Const"
  device: "/job:ps/task:1"
  attr {
    key: "_output_shapes"
    value {
      list {
        shape {
          dim {
            size: 1024
          }
        }
      }
    }
  }
  attr {
    key: "dtype"
    value {
      type: DT_FLOAT
    }
  }
  attr {
    key: "value"
    value {
      tensor {
        dtype: DT_FLOAT
        tensor_shape {
          dim {
            size: 1024
          }
        }
        float_val: 0.10000000149011612
      }
    }
  }
}
node {
  name: "copy_ps_1/Variable_5"
  op: "VariableV2"
  device: "/job:ps/task:1"
  attr {
    key: "_output_shapes"
    value {
      list {
        shape {
          dim {
            size: 1024
          }
        }
      }
    }
  }
  attr {
    key: "container"
    value {
      s: ""
    }
  }
  attr {
    key: "dtype"
    value {
      type: DT_FLOAT
    }
  }
  attr {
    key: "shape"
    value {
      shape {
        dim {
          size: 1024
        }
      }
    }
  }
  attr {
    key: "shared_name"
    value {
      s: ""
    }
  }
}
node {
  name: "copy_ps_1/Variable_5/Assign"
  op: "Assign"
  input: "copy_ps_1/Variable_5"
  input: "copy_ps_1/Const_2"
  device: "/job:ps/task:1"
  attr {
    key: "T"
    value {
      type: DT_FLOAT
    }
  }
  attr {
    key: "_class"
    value {
      list {
        s: "loc:@copy_ps_1/Variable_5"
      }
    }
  }
  attr {
    key: "_output_shapes"
    value {
      list {
        shape {
          dim {
            size: 1024
          }
        }
      }
    }
  }
  attr {
    key: "use_locking"
    value {
      b: true
    }
  }
  attr {
    key: "validate_shape"
    value {
      b: true
    }
  }
}
node {
  name: "copy_ps_1/Variable_5/read"
  op: "Identity"
  input: "copy_ps_1/Variable_5"
  device: "/job:ps/task:1"
  attr {
    key: "T"
    value {
      type: DT_FLOAT
    }
  }
  attr {
    key: "_class"
    value {
      list {
        s: "loc:@copy_ps_1/Variable_5"
      }
    }
  }
  attr {
    key: "_output_shapes"
    value {
      list {
        shape {
          dim {
            size: 1024
          }
        }
      }
    }
  }
}
node {
  name: "copy_ps_1/Reshape_1/shape"
  op: "Const"
  device: "/job:ps/task:1"
  attr {
    key: "_output_shapes"
    value {
      list {
        shape {
          dim {
            size: 2
          }
        }
      }
    }
  }
  attr {
    key: "dtype"
    value {
      type: DT_INT32
    }
  }
  attr {
    key: "value"
    value {
      tensor {
        dtype: DT_INT32
        tensor_shape {
          dim {
            size: 2
          }
        }
        tensor_content: "\377\377\377\377@\014\000\000"
      }
    }
  }
}
node {
  name: "copy_ps_1/Reshape_1"
  op: "Reshape"
  input: "copy_ps_1/MaxPool_1"
  input: "copy_ps_1/Reshape_1/shape"
  device: "/job:ps/task:1"
  attr {
    key: "T"
    value {
      type: DT_FLOAT
    }
  }
  attr {
    key: "Tshape"
    value {
      type: DT_INT32
    }
  }
  attr {
    key: "_output_shapes"
    value {
      list {
        shape {
          dim {
            size: -1
          }
          dim {
            size: 3136
          }
        }
      }
    }
  }
}
node {
  name: "copy_ps_1/MatMul"
  op: "MatMul"
  input: "copy_ps_1/Reshape_1"
  input: "copy_ps_1/Variable_4/read"
  device: "/job:ps/task:1"
  attr {
    key: "T"
    value {
      type: DT_FLOAT
    }
  }
  attr {
    key: "_output_shapes"
    value {
      list {
        shape {
          dim {
            size: -1
          }
          dim {
            size: 1024
          }
        }
      }
    }
  }
  attr {
    key: "transpose_a"
    value {
      b: false
    }
  }
  attr {
    key: "transpose_b"
    value {
      b: false
    }
  }
}
node {
  name: "copy_ps_1/add_2"
  op: "Add"
  input: "copy_ps_1/MatMul"
  input: "copy_ps_1/Variable_5/read"
  device: "/job:ps/task:1"
  attr {
    key: "T"
    value {
      type: DT_FLOAT
    }
  }
  attr {
    key: "_output_shapes"
    value {
      list {
        shape {
          dim {
            size: -1
          }
          dim {
            size: 1024
          }
        }
      }
    }
  }
}
node {
  name: "copy_ps_1/Relu_2"
  op: "Relu"
  input: "copy_ps_1/add_2"
  device: "/job:ps/task:1"
  attr {
    key: "T"
    value {
      type: DT_FLOAT
    }
  }
  attr {
    key: "_output_shapes"
    value {
      list {
        shape {
          dim {
            size: -1
          }
          dim {
            size: 1024
          }
        }
      }
    }
  }
}
node {
  name: "copy_ps_1/Placeholder"
  op: "Placeholder"
  device: "/job:ps/task:1"
  attr {
    key: "_output_shapes"
    value {
      list {
        shape {
          unknown_rank: true
        }
      }
    }
  }
  attr {
    key: "dtype"
    value {
      type: DT_FLOAT
    }
  }
  attr {
    key: "shape"
    value {
      shape {
        unknown_rank: true
      }
    }
  }
}
node {
  name: "copy_ps_1/dropout/Shape"
  op: "Shape"
  input: "copy_ps_1/Relu_2"
  device: "/job:ps/task:1"
  attr {
    key: "T"
    value {
      type: DT_FLOAT
    }
  }
  attr {
    key: "_output_shapes"
    value {
      list {
        shape {
          dim {
            size: 2
          }
        }
      }
    }
  }
  attr {
    key: "out_type"
    value {
      type: DT_INT32
    }
  }
}
node {
  name: "copy_ps_1/dropout/random_uniform/min"
  op: "Const"
  device: "/job:ps/task:1"
  attr {
    key: "_output_shapes"
    value {
      list {
        shape {
        }
      }
    }
  }
  attr {
    key: "dtype"
    value {
      type: DT_FLOAT
    }
  }
  attr {
    key: "value"
    value {
      tensor {
        dtype: DT_FLOAT
        tensor_shape {
        }
        float_val: 0.0
      }
    }
  }
}
node {
  name: "copy_ps_1/dropout/random_uniform/max"
  op: "Const"
  device: "/job:ps/task:1"
  attr {
    key: "_output_shapes"
    value {
      list {
        shape {
        }
      }
    }
  }
  attr {
    key: "dtype"
    value {
      type: DT_FLOAT
    }
  }
  attr {
    key: "value"
    value {
      tensor {
        dtype: DT_FLOAT
        tensor_shape {
        }
        float_val: 1.0
      }
    }
  }
}
node {
  name: "copy_ps_1/dropout/random_uniform/RandomUniform"
  op: "RandomUniform"
  input: "copy_ps_1/dropout/Shape"
  device: "/job:ps/task:1"
  attr {
    key: "T"
    value {
      type: DT_INT32
    }
  }
  attr {
    key: "_output_shapes"
    value {
      list {
        shape {
          dim {
            size: -1
          }
          dim {
            size: 1024
          }
        }
      }
    }
  }
  attr {
    key: "dtype"
    value {
      type: DT_FLOAT
    }
  }
  attr {
    key: "seed"
    value {
      i: 2
    }
  }
  attr {
    key: "seed2"
    value {
      i: 232
    }
  }
}
node {
  name: "copy_ps_1/dropout/random_uniform/sub"
  op: "Sub"
  input: "copy_ps_1/dropout/random_uniform/max"
  input: "copy_ps_1/dropout/random_uniform/min"
  device: "/job:ps/task:1"
  attr {
    key: "T"
    value {
      type: DT_FLOAT
    }
  }
  attr {
    key: "_output_shapes"
    value {
      list {
        shape {
        }
      }
    }
  }
}
node {
  name: "copy_ps_1/dropout/random_uniform/mul"
  op: "Mul"
  input: "copy_ps_1/dropout/random_uniform/RandomUniform"
  input: "copy_ps_1/dropout/random_uniform/sub"
  device: "/job:ps/task:1"
  attr {
    key: "T"
    value {
      type: DT_FLOAT
    }
  }
  attr {
    key: "_output_shapes"
    value {
      list {
        shape {
          dim {
            size: -1
          }
          dim {
            size: 1024
          }
        }
      }
    }
  }
}
node {
  name: "copy_ps_1/dropout/random_uniform"
  op: "Add"
  input: "copy_ps_1/dropout/random_uniform/mul"
  input: "copy_ps_1/dropout/random_uniform/min"
  device: "/job:ps/task:1"
  attr {
    key: "T"
    value {
      type: DT_FLOAT
    }
  }
  attr {
    key: "_output_shapes"
    value {
      list {
        shape {
          dim {
            size: -1
          }
          dim {
            size: 1024
          }
        }
      }
    }
  }
}
node {
  name: "copy_ps_1/dropout/add"
  op: "Add"
  input: "copy_ps_1/Placeholder"
  input: "copy_ps_1/dropout/random_uniform"
  device: "/job:ps/task:1"
  attr {
    key: "T"
    value {
      type: DT_FLOAT
    }
  }
  attr {
    key: "_output_shapes"
    value {
      list {
        shape {
          unknown_rank: true
        }
      }
    }
  }
}
node {
  name: "copy_ps_1/dropout/Floor"
  op: "Floor"
  input: "copy_ps_1/dropout/add"
  device: "/job:ps/task:1"
  attr {
    key: "T"
    value {
      type: DT_FLOAT
    }
  }
  attr {
    key: "_output_shapes"
    value {
      list {
        shape {
          unknown_rank: true
        }
      }
    }
  }
}
node {
  name: "copy_ps_1/dropout/div"
  op: "RealDiv"
  input: "copy_ps_1/Relu_2"
  input: "copy_ps_1/Placeholder"
  device: "/job:ps/task:1"
  attr {
    key: "T"
    value {
      type: DT_FLOAT
    }
  }
  attr {
    key: "_output_shapes"
    value {
      list {
        shape {
          unknown_rank: true
        }
      }
    }
  }
}
node {
  name: "copy_ps_1/dropout/mul"
  op: "Mul"
  input: "copy_ps_1/dropout/div"
  input: "copy_ps_1/dropout/Floor"
  device: "/job:ps/task:1"
  attr {
    key: "T"
    value {
      type: DT_FLOAT
    }
  }
  attr {
    key: "_output_shapes"
    value {
      list {
        shape {
          dim {
            size: -1
          }
          dim {
            size: 1024
          }
        }
      }
    }
  }
}
node {
  name: "copy_ps_1/truncated_normal_3/shape"
  op: "Const"
  device: "/job:ps/task:1"
  attr {
    key: "_output_shapes"
    value {
      list {
        shape {
          dim {
            size: 2
          }
        }
      }
    }
  }
  attr {
    key: "dtype"
    value {
      type: DT_INT32
    }
  }
  attr {
    key: "value"
    value {
      tensor {
        dtype: DT_INT32
        tensor_shape {
          dim {
            size: 2
          }
        }
        tensor_content: "\000\004\000\000\n\000\000\000"
      }
    }
  }
}
node {
  name: "copy_ps_1/truncated_normal_3/mean"
  op: "Const"
  device: "/job:ps/task:1"
  attr {
    key: "_output_shapes"
    value {
      list {
        shape {
        }
      }
    }
  }
  attr {
    key: "dtype"
    value {
      type: DT_FLOAT
    }
  }
  attr {
    key: "value"
    value {
      tensor {
        dtype: DT_FLOAT
        tensor_shape {
        }
        float_val: 0.0
      }
    }
  }
}
node {
  name: "copy_ps_1/truncated_normal_3/stddev"
  op: "Const"
  device: "/job:ps/task:1"
  attr {
    key: "_output_shapes"
    value {
      list {
        shape {
        }
      }
    }
  }
  attr {
    key: "dtype"
    value {
      type: DT_FLOAT
    }
  }
  attr {
    key: "value"
    value {
      tensor {
        dtype: DT_FLOAT
        tensor_shape {
        }
        float_val: 0.10000000149011612
      }
    }
  }
}
node {
  name: "copy_ps_1/truncated_normal_3/TruncatedNormal"
  op: "TruncatedNormal"
  input: "copy_ps_1/truncated_normal_3/shape"
  device: "/job:ps/task:1"
  attr {
    key: "T"
    value {
      type: DT_INT32
    }
  }
  attr {
    key: "_output_shapes"
    value {
      list {
        shape {
          dim {
            size: 1024
          }
          dim {
            size: 10
          }
        }
      }
    }
  }
  attr {
    key: "dtype"
    value {
      type: DT_FLOAT
    }
  }
  attr {
    key: "seed"
    value {
      i: 2
    }
  }
  attr {
    key: "seed2"
    value {
      i: 243
    }
  }
}
node {
  name: "copy_ps_1/truncated_normal_3/mul"
  op: "Mul"
  input: "copy_ps_1/truncated_normal_3/TruncatedNormal"
  input: "copy_ps_1/truncated_normal_3/stddev"
  device: "/job:ps/task:1"
  attr {
    key: "T"
    value {
      type: DT_FLOAT
    }
  }
  attr {
    key: "_output_shapes"
    value {
      list {
        shape {
          dim {
            size: 1024
          }
          dim {
            size: 10
          }
        }
      }
    }
  }
}
node {
  name: "copy_ps_1/truncated_normal_3"
  op: "Add"
  input: "copy_ps_1/truncated_normal_3/mul"
  input: "copy_ps_1/truncated_normal_3/mean"
  device: "/job:ps/task:1"
  attr {
    key: "T"
    value {
      type: DT_FLOAT
    }
  }
  attr {
    key: "_output_shapes"
    value {
      list {
        shape {
          dim {
            size: 1024
          }
          dim {
            size: 10
          }
        }
      }
    }
  }
}
node {
  name: "copy_ps_1/Variable_6"
  op: "VariableV2"
  device: "/job:ps/task:1"
  attr {
    key: "_output_shapes"
    value {
      list {
        shape {
          dim {
            size: 1024
          }
          dim {
            size: 10
          }
        }
      }
    }
  }
  attr {
    key: "container"
    value {
      s: ""
    }
  }
  attr {
    key: "dtype"
    value {
      type: DT_FLOAT
    }
  }
  attr {
    key: "shape"
    value {
      shape {
        dim {
          size: 1024
        }
        dim {
          size: 10
        }
      }
    }
  }
  attr {
    key: "shared_name"
    value {
      s: ""
    }
  }
}
node {
  name: "copy_ps_1/Variable_6/Assign"
  op: "Assign"
  input: "copy_ps_1/Variable_6"
  input: "copy_ps_1/truncated_normal_3"
  device: "/job:ps/task:1"
  attr {
    key: "T"
    value {
      type: DT_FLOAT
    }
  }
  attr {
    key: "_class"
    value {
      list {
        s: "loc:@copy_ps_1/Variable_6"
      }
    }
  }
  attr {
    key: "_output_shapes"
    value {
      list {
        shape {
          dim {
            size: 1024
          }
          dim {
            size: 10
          }
        }
      }
    }
  }
  attr {
    key: "use_locking"
    value {
      b: true
    }
  }
  attr {
    key: "validate_shape"
    value {
      b: true
    }
  }
}
node {
  name: "copy_ps_1/Variable_6/read"
  op: "Identity"
  input: "copy_ps_1/Variable_6"
  device: "/job:ps/task:1"
  attr {
    key: "T"
    value {
      type: DT_FLOAT
    }
  }
  attr {
    key: "_class"
    value {
      list {
        s: "loc:@copy_ps_1/Variable_6"
      }
    }
  }
  attr {
    key: "_output_shapes"
    value {
      list {
        shape {
          dim {
            size: 1024
          }
          dim {
            size: 10
          }
        }
      }
    }
  }
}
node {
  name: "copy_ps_1/Const_3"
  op: "Const"
  device: "/job:ps/task:1"
  attr {
    key: "_output_shapes"
    value {
      list {
        shape {
          dim {
            size: 10
          }
        }
      }
    }
  }
  attr {
    key: "dtype"
    value {
      type: DT_FLOAT
    }
  }
  attr {
    key: "value"
    value {
      tensor {
        dtype: DT_FLOAT
        tensor_shape {
          dim {
            size: 10
          }
        }
        float_val: 0.10000000149011612
      }
    }
  }
}
node {
  name: "copy_ps_1/Variable_7"
  op: "VariableV2"
  device: "/job:ps/task:1"
  attr {
    key: "_output_shapes"
    value {
      list {
        shape {
          dim {
            size: 10
          }
        }
      }
    }
  }
  attr {
    key: "container"
    value {
      s: ""
    }
  }
  attr {
    key: "dtype"
    value {
      type: DT_FLOAT
    }
  }
  attr {
    key: "shape"
    value {
      shape {
        dim {
          size: 10
        }
      }
    }
  }
  attr {
    key: "shared_name"
    value {
      s: ""
    }
  }
}
node {
  name: "copy_ps_1/Variable_7/Assign"
  op: "Assign"
  input: "copy_ps_1/Variable_7"
  input: "copy_ps_1/Const_3"
  device: "/job:ps/task:1"
  attr {
    key: "T"
    value {
      type: DT_FLOAT
    }
  }
  attr {
    key: "_class"
    value {
      list {
        s: "loc:@copy_ps_1/Variable_7"
      }
    }
  }
  attr {
    key: "_output_shapes"
    value {
      list {
        shape {
          dim {
            size: 10
          }
        }
      }
    }
  }
  attr {
    key: "use_locking"
    value {
      b: true
    }
  }
  attr {
    key: "validate_shape"
    value {
      b: true
    }
  }
}
node {
  name: "copy_ps_1/Variable_7/read"
  op: "Identity"
  input: "copy_ps_1/Variable_7"
  device: "/job:ps/task:1"
  attr {
    key: "T"
    value {
      type: DT_FLOAT
    }
  }
  attr {
    key: "_class"
    value {
      list {
        s: "loc:@copy_ps_1/Variable_7"
      }
    }
  }
  attr {
    key: "_output_shapes"
    value {
      list {
        shape {
          dim {
            size: 10
          }
        }
      }
    }
  }
}
node {
  name: "copy_ps_1/MatMul_1"
  op: "MatMul"
  input: "copy_ps_1/dropout/mul"
  input: "copy_ps_1/Variable_6/read"
  device: "/job:ps/task:1"
  attr {
    key: "T"
    value {
      type: DT_FLOAT
    }
  }
  attr {
    key: "_output_shapes"
    value {
      list {
        shape {
          dim {
            size: -1
          }
          dim {
            size: 10
          }
        }
      }
    }
  }
  attr {
    key: "transpose_a"
    value {
      b: false
    }
  }
  attr {
    key: "transpose_b"
    value {
      b: false
    }
  }
}
node {
  name: "copy_ps_1/add_3"
  op: "Add"
  input: "copy_ps_1/MatMul_1"
  input: "copy_ps_1/Variable_7/read"
  device: "/job:ps/task:1"
  attr {
    key: "T"
    value {
      type: DT_FLOAT
    }
  }
  attr {
    key: "_output_shapes"
    value {
      list {
        shape {
          dim {
            size: -1
          }
          dim {
            size: 10
          }
        }
      }
    }
  }
}
node {
  name: "global_step/initial_value"
  op: "Const"
  device: "/job:ps/task:1"
  attr {
    key: "_output_shapes"
    value {
      list {
        shape {
        }
      }
    }
  }
  attr {
    key: "dtype"
    value {
      type: DT_INT32
    }
  }
  attr {
    key: "value"
    value {
      tensor {
        dtype: DT_INT32
        tensor_shape {
        }
        int_val: 0
      }
    }
  }
}
node {
  name: "global_step"
  op: "VariableV2"
  device: "/job:ps/task:1"
  attr {
    key: "_output_shapes"
    value {
      list {
        shape {
        }
      }
    }
  }
  attr {
    key: "container"
    value {
      s: ""
    }
  }
  attr {
    key: "dtype"
    value {
      type: DT_INT32
    }
  }
  attr {
    key: "shape"
    value {
      shape {
      }
    }
  }
  attr {
    key: "shared_name"
    value {
      s: ""
    }
  }
}
node {
  name: "global_step/Assign"
  op: "Assign"
  input: "global_step"
  input: "global_step/initial_value"
  device: "/job:ps/task:1"
  attr {
    key: "T"
    value {
      type: DT_INT32
    }
  }
  attr {
    key: "_class"
    value {
      list {
        s: "loc:@global_step"
      }
    }
  }
  attr {
    key: "_output_shapes"
    value {
      list {
        shape {
        }
      }
    }
  }
  attr {
    key: "use_locking"
    value {
      b: true
    }
  }
  attr {
    key: "validate_shape"
    value {
      b: true
    }
  }
}
node {
  name: "global_step/read"
  op: "Identity"
  input: "global_step"
  device: "/job:ps/task:1"
  attr {
    key: "T"
    value {
      type: DT_INT32
    }
  }
  attr {
    key: "_class"
    value {
      list {
        s: "loc:@global_step"
      }
    }
  }
  attr {
    key: "_output_shapes"
    value {
      list {
        shape {
        }
      }
    }
  }
}
node {
  name: "Rank"
  op: "Const"
  device: "/job:ps/task:1"
  attr {
    key: "_output_shapes"
    value {
      list {
        shape {
        }
      }
    }
  }
  attr {
    key: "dtype"
    value {
      type: DT_INT32
    }
  }
  attr {
    key: "value"
    value {
      tensor {
        dtype: DT_INT32
        tensor_shape {
        }
        int_val: 2
      }
    }
  }
}
node {
  name: "Shape"
  op: "Shape"
  input: "ps_1/add_3"
  device: "/job:ps/task:1"
  attr {
    key: "T"
    value {
      type: DT_FLOAT
    }
  }
  attr {
    key: "_output_shapes"
    value {
      list {
        shape {
          dim {
            size: 2
          }
        }
      }
    }
  }
  attr {
    key: "out_type"
    value {
      type: DT_INT32
    }
  }
}
node {
  name: "Rank_1"
  op: "Const"
  device: "/job:ps/task:1"
  attr {
    key: "_output_shapes"
    value {
      list {
        shape {
        }
      }
    }
  }
  attr {
    key: "dtype"
    value {
      type: DT_INT32
    }
  }
  attr {
    key: "value"
    value {
      tensor {
        dtype: DT_INT32
        tensor_shape {
        }
        int_val: 2
      }
    }
  }
}
node {
  name: "Shape_1"
  op: "Shape"
  input: "ps_1/add_3"
  device: "/job:ps/task:1"
  attr {
    key: "T"
    value {
      type: DT_FLOAT
    }
  }
  attr {
    key: "_output_shapes"
    value {
      list {
        shape {
          dim {
            size: 2
          }
        }
      }
    }
  }
  attr {
    key: "out_type"
    value {
      type: DT_INT32
    }
  }
}
node {
  name: "Sub/y"
  op: "Const"
  device: "/job:ps/task:1"
  attr {
    key: "_output_shapes"
    value {
      list {
        shape {
        }
      }
    }
  }
  attr {
    key: "dtype"
    value {
      type: DT_INT32
    }
  }
  attr {
    key: "value"
    value {
      tensor {
        dtype: DT_INT32
        tensor_shape {
        }
        int_val: 1
      }
    }
  }
}
node {
  name: "Sub"
  op: "Sub"
  input: "Rank_1"
  input: "Sub/y"
  device: "/job:ps/task:1"
  attr {
    key: "T"
    value {
      type: DT_INT32
    }
  }
  attr {
    key: "_output_shapes"
    value {
      list {
        shape {
        }
      }
    }
  }
}
node {
  name: "Slice/begin"
  op: "Pack"
  input: "Sub"
  device: "/job:ps/task:1"
  attr {
    key: "N"
    value {
      i: 1
    }
  }
  attr {
    key: "T"
    value {
      type: DT_INT32
    }
  }
  attr {
    key: "_output_shapes"
    value {
      list {
        shape {
          dim {
            size: 1
          }
        }
      }
    }
  }
  attr {
    key: "axis"
    value {
      i: 0
    }
  }
}
node {
  name: "Slice/size"
  op: "Const"
  device: "/job:ps/task:1"
  attr {
    key: "_output_shapes"
    value {
      list {
        shape {
          dim {
            size: 1
          }
        }
      }
    }
  }
  attr {
    key: "dtype"
    value {
      type: DT_INT32
    }
  }
  attr {
    key: "value"
    value {
      tensor {
        dtype: DT_INT32
        tensor_shape {
          dim {
            size: 1
          }
        }
        int_val: 1
      }
    }
  }
}
node {
  name: "Slice"
  op: "Slice"
  input: "Shape_1"
  input: "Slice/begin"
  input: "Slice/size"
  device: "/job:ps/task:1"
  attr {
    key: "Index"
    value {
      type: DT_INT32
    }
  }
  attr {
    key: "T"
    value {
      type: DT_INT32
    }
  }
  attr {
    key: "_output_shapes"
    value {
      list {
        shape {
          dim {
            size: 1
          }
        }
      }
    }
  }
}
node {
  name: "concat/values_0"
  op: "Const"
  device: "/job:ps/task:1"
  attr {
    key: "_output_shapes"
    value {
      list {
        shape {
          dim {
            size: 1
          }
        }
      }
    }
  }
  attr {
    key: "dtype"
    value {
      type: DT_INT32
    }
  }
  attr {
    key: "value"
    value {
      tensor {
        dtype: DT_INT32
        tensor_shape {
          dim {
            size: 1
          }
        }
        int_val: -1
      }
    }
  }
}
node {
  name: "concat/axis"
  op: "Const"
  device: "/job:ps/task:1"
  attr {
    key: "_output_shapes"
    value {
      list {
        shape {
        }
      }
    }
  }
  attr {
    key: "dtype"
    value {
      type: DT_INT32
    }
  }
  attr {
    key: "value"
    value {
      tensor {
        dtype: DT_INT32
        tensor_shape {
        }
        int_val: 0
      }
    }
  }
}
node {
  name: "concat"
  op: "ConcatV2"
  input: "concat/values_0"
  input: "Slice"
  input: "concat/axis"
  device: "/job:ps/task:1"
  attr {
    key: "N"
    value {
      i: 2
    }
  }
  attr {
    key: "T"
    value {
      type: DT_INT32
    }
  }
  attr {
    key: "Tidx"
    value {
      type: DT_INT32
    }
  }
  attr {
    key: "_output_shapes"
    value {
      list {
        shape {
          dim {
            size: 2
          }
        }
      }
    }
  }
}
node {
  name: "Reshape"
  op: "Reshape"
  input: "ps_1/add_3"
  input: "concat"
  device: "/job:ps/task:1"
  attr {
    key: "T"
    value {
      type: DT_FLOAT
    }
  }
  attr {
    key: "Tshape"
    value {
      type: DT_INT32
    }
  }
  attr {
    key: "_output_shapes"
    value {
      list {
        shape {
          dim {
            size: -1
          }
          dim {
            size: -1
          }
        }
      }
    }
  }
}
node {
  name: "Rank_2"
  op: "Const"
  device: "/job:ps/task:1"
  attr {
    key: "_output_shapes"
    value {
      list {
        shape {
        }
      }
    }
  }
  attr {
    key: "dtype"
    value {
      type: DT_INT32
    }
  }
  attr {
    key: "value"
    value {
      tensor {
        dtype: DT_INT32
        tensor_shape {
        }
        int_val: 2
      }
    }
  }
}
node {
  name: "Shape_2"
  op: "Shape"
  input: "Placeholder_3"
  device: "/job:ps/task:1"
  attr {
    key: "T"
    value {
      type: DT_FLOAT
    }
  }
  attr {
    key: "_output_shapes"
    value {
      list {
        shape {
          dim {
            size: 2
          }
        }
      }
    }
  }
  attr {
    key: "out_type"
    value {
      type: DT_INT32
    }
  }
}
node {
  name: "Sub_1/y"
  op: "Const"
  device: "/job:ps/task:1"
  attr {
    key: "_output_shapes"
    value {
      list {
        shape {
        }
      }
    }
  }
  attr {
    key: "dtype"
    value {
      type: DT_INT32
    }
  }
  attr {
    key: "value"
    value {
      tensor {
        dtype: DT_INT32
        tensor_shape {
        }
        int_val: 1
      }
    }
  }
}
node {
  name: "Sub_1"
  op: "Sub"
  input: "Rank_2"
  input: "Sub_1/y"
  device: "/job:ps/task:1"
  attr {
    key: "T"
    value {
      type: DT_INT32
    }
  }
  attr {
    key: "_output_shapes"
    value {
      list {
        shape {
        }
      }
    }
  }
}
node {
  name: "Slice_1/begin"
  op: "Pack"
  input: "Sub_1"
  device: "/job:ps/task:1"
  attr {
    key: "N"
    value {
      i: 1
    }
  }
  attr {
    key: "T"
    value {
      type: DT_INT32
    }
  }
  attr {
    key: "_output_shapes"
    value {
      list {
        shape {
          dim {
            size: 1
          }
        }
      }
    }
  }
  attr {
    key: "axis"
    value {
      i: 0
    }
  }
}
node {
  name: "Slice_1/size"
  op: "Const"
  device: "/job:ps/task:1"
  attr {
    key: "_output_shapes"
    value {
      list {
        shape {
          dim {
            size: 1
          }
        }
      }
    }
  }
  attr {
    key: "dtype"
    value {
      type: DT_INT32
    }
  }
  attr {
    key: "value"
    value {
      tensor {
        dtype: DT_INT32
        tensor_shape {
          dim {
            size: 1
          }
        }
        int_val: 1
      }
    }
  }
}
node {
  name: "Slice_1"
  op: "Slice"
  input: "Shape_2"
  input: "Slice_1/begin"
  input: "Slice_1/size"
  device: "/job:ps/task:1"
  attr {
    key: "Index"
    value {
      type: DT_INT32
    }
  }
  attr {
    key: "T"
    value {
      type: DT_INT32
    }
  }
  attr {
    key: "_output_shapes"
    value {
      list {
        shape {
          dim {
            size: 1
          }
        }
      }
    }
  }
}
node {
  name: "concat_1/values_0"
  op: "Const"
  device: "/job:ps/task:1"
  attr {
    key: "_output_shapes"
    value {
      list {
        shape {
          dim {
            size: 1
          }
        }
      }
    }
  }
  attr {
    key: "dtype"
    value {
      type: DT_INT32
    }
  }
  attr {
    key: "value"
    value {
      tensor {
        dtype: DT_INT32
        tensor_shape {
          dim {
            size: 1
          }
        }
        int_val: -1
      }
    }
  }
}
node {
  name: "concat_1/axis"
  op: "Const"
  device: "/job:ps/task:1"
  attr {
    key: "_output_shapes"
    value {
      list {
        shape {
        }
      }
    }
  }
  attr {
    key: "dtype"
    value {
      type: DT_INT32
    }
  }
  attr {
    key: "value"
    value {
      tensor {
        dtype: DT_INT32
        tensor_shape {
        }
        int_val: 0
      }
    }
  }
}
node {
  name: "concat_1"
  op: "ConcatV2"
  input: "concat_1/values_0"
  input: "Slice_1"
  input: "concat_1/axis"
  device: "/job:ps/task:1"
  attr {
    key: "N"
    value {
      i: 2
    }
  }
  attr {
    key: "T"
    value {
      type: DT_INT32
    }
  }
  attr {
    key: "Tidx"
    value {
      type: DT_INT32
    }
  }
  attr {
    key: "_output_shapes"
    value {
      list {
        shape {
          dim {
            size: 2
          }
        }
      }
    }
  }
}
node {
  name: "Reshape_1"
  op: "Reshape"
  input: "Placeholder_3"
  input: "concat_1"
  device: "/job:ps/task:1"
  attr {
    key: "T"
    value {
      type: DT_FLOAT
    }
  }
  attr {
    key: "Tshape"
    value {
      type: DT_INT32
    }
  }
  attr {
    key: "_output_shapes"
    value {
      list {
        shape {
          dim {
            size: -1
          }
          dim {
            size: -1
          }
        }
      }
    }
  }
}
node {
  name: "SoftmaxCrossEntropyWithLogits"
  op: "SoftmaxCrossEntropyWithLogits"
  input: "Reshape"
  input: "Reshape_1"
  device: "/job:ps/task:1"
  attr {
    key: "T"
    value {
      type: DT_FLOAT
    }
  }
  attr {
    key: "_output_shapes"
    value {
      list {
        shape {
          dim {
            size: -1
          }
        }
        shape {
          dim {
            size: -1
          }
          dim {
            size: -1
          }
        }
      }
    }
  }
}
node {
  name: "Sub_2/y"
  op: "Const"
  device: "/job:ps/task:1"
  attr {
    key: "_output_shapes"
    value {
      list {
        shape {
        }
      }
    }
  }
  attr {
    key: "dtype"
    value {
      type: DT_INT32
    }
  }
  attr {
    key: "value"
    value {
      tensor {
        dtype: DT_INT32
        tensor_shape {
        }
        int_val: 1
      }
    }
  }
}
node {
  name: "Sub_2"
  op: "Sub"
  input: "Rank"
  input: "Sub_2/y"
  device: "/job:ps/task:1"
  attr {
    key: "T"
    value {
      type: DT_INT32
    }
  }
  attr {
    key: "_output_shapes"
    value {
      list {
        shape {
        }
      }
    }
  }
}
node {
  name: "Slice_2/begin"
  op: "Const"
  device: "/job:ps/task:1"
  attr {
    key: "_output_shapes"
    value {
      list {
        shape {
          dim {
            size: 1
          }
        }
      }
    }
  }
  attr {
    key: "dtype"
    value {
      type: DT_INT32
    }
  }
  attr {
    key: "value"
    value {
      tensor {
        dtype: DT_INT32
        tensor_shape {
          dim {
            size: 1
          }
        }
        int_val: 0
      }
    }
  }
}
node {
  name: "Slice_2/size"
  op: "Pack"
  input: "Sub_2"
  device: "/job:ps/task:1"
  attr {
    key: "N"
    value {
      i: 1
    }
  }
  attr {
    key: "T"
    value {
      type: DT_INT32
    }
  }
  attr {
    key: "_output_shapes"
    value {
      list {
        shape {
          dim {
            size: 1
          }
        }
      }
    }
  }
  attr {
    key: "axis"
    value {
      i: 0
    }
  }
}
node {
  name: "Slice_2"
  op: "Slice"
  input: "Shape"
  input: "Slice_2/begin"
  input: "Slice_2/size"
  device: "/job:ps/task:1"
  attr {
    key: "Index"
    value {
      type: DT_INT32
    }
  }
  attr {
    key: "T"
    value {
      type: DT_INT32
    }
  }
  attr {
    key: "_output_shapes"
    value {
      list {
        shape {
          dim {
            size: -1
          }
        }
      }
    }
  }
}
node {
  name: "Reshape_2"
  op: "Reshape"
  input: "SoftmaxCrossEntropyWithLogits"
  input: "Slice_2"
  device: "/job:ps/task:1"
  attr {
    key: "T"
    value {
      type: DT_FLOAT
    }
  }
  attr {
    key: "Tshape"
    value {
      type: DT_INT32
    }
  }
  attr {
    key: "_output_shapes"
    value {
      list {
        shape {
          dim {
            size: -1
          }
        }
      }
    }
  }
}
node {
  name: "Const_1"
  op: "Const"
  device: "/job:ps/task:1"
  attr {
    key: "_output_shapes"
    value {
      list {
        shape {
          dim {
            size: 1
          }
        }
      }
    }
  }
  attr {
    key: "dtype"
    value {
      type: DT_INT32
    }
  }
  attr {
    key: "value"
    value {
      tensor {
        dtype: DT_INT32
        tensor_shape {
          dim {
            size: 1
          }
        }
        int_val: 0
      }
    }
  }
}
node {
  name: "Mean_1"
  op: "Mean"
  input: "Reshape_2"
  input: "Const_1"
  device: "/job:ps/task:1"
  attr {
    key: "T"
    value {
      type: DT_FLOAT
    }
  }
  attr {
    key: "Tidx"
    value {
      type: DT_INT32
    }
  }
  attr {
    key: "_output_shapes"
    value {
      list {
        shape {
        }
      }
    }
  }
  attr {
    key: "keep_dims"
    value {
      b: false
    }
  }
}
node {
  name: "ArgMax_2/dimension"
  op: "Const"
  device: "/job:ps/task:1"
  attr {
    key: "_output_shapes"
    value {
      list {
…
  attr {
    key: "_output_shapes"
    value {
      list {
        shape {
          dim {
            size: 5
          }
          dim {
            size: 5
          }
          dim {
            size: 1
          }
          dim {
            size: 32
          }
        }
      }
    }
  }
  attr {
    key: "use_locking"
    value {
      b: true
    }
  }
  attr {
    key: "validate_shape"
    value {
      b: true
    }
  }
}
node {
  name: "save_1/RestoreV2_37/tensor_names"
  op: "Const"
  device: "/job:ps/task:2/device:CPU:0"
  attr {
    key: "_output_shapes"
    value {
      list {
        shape {
          dim {
            size: 1
          }
        }
      }
    }
  }
  attr {
    key: "dtype"
    value {
      type: DT_STRING
    }
  }
  attr {
    key: "value"
    value {
      tensor {
        dtype: DT_STRING
        tensor_shape {
          dim {
            size: 1
          }
        }
        string_val: "ps_2/Variable/Adam_1"
      }
    }
  }
}
node {
  name: "save_1/RestoreV2_37/shape_and_slices"
  op: "Const"
  device: "/job:ps/task:2/device:CPU:0"
  attr {
    key: "_output_shapes"
    value {
      list {
        shape {
          dim {
            size: 1
          }
        }
      }
    }
  }
  attr {
    key: "dtype"
    value {
      type: DT_STRING
    }
  }
  attr {
    key: "value"
    value {
      tensor {
        dtype: DT_STRING
        tensor_shape {
          dim {
            size: 1
          }
        }
        string_val: ""
      }
    }
  }
}
node {
  name: "save_1/RestoreV2_37"
  op: "RestoreV2"
  input: "save_1/Const"
  input: "save_1/RestoreV2_37/tensor_names"
  input: "save_1/RestoreV2_37/shape_and_slices"
  device: "/job:ps/task:2/device:CPU:0"
  attr {
    key: "_output_shapes"
    value {
      list {
        shape {
          unknown_rank: true
        }
      }
    }
  }
  attr {
    key: "dtypes"
    value {
      list {
        type: DT_FLOAT
      }
    }
  }
}
node {
  name: "save_1/Assign_37"
  op: "Assign"
  input: "ps_2/Variable/Adam_1"
  input: "save_1/RestoreV2_37"
  device: "/job:ps/task:2"
  attr {
    key: "T"
    value {
      type: DT_FLOAT
    }
  }
  attr {
    key: "_class"
    value {
      list {
        s: "loc:@ps_2/Variable"
      }
    }
  }
  attr {
    key: "_output_shapes"
    value {
      list {
        shape {
          dim {
            size: 5
          }
          dim {
            size: 5
          }
          dim {
            size: 1
          }
          dim {
            size: 32
          }
        }
      }
    }
  }
  attr {
    key: "use_locking"
    value {
      b: true
    }
  }
  attr {
    key: "validate_shape"
    value {
      b: true
    }
  }
}
node {
  name: "save_1/RestoreV2_38/tensor_names"
  op: "Const"
  device: "/job:ps/task:2/device:CPU:0"
  attr {
    key: "_output_shapes"
    value {
      list {
        shape {
          dim {
            size: 1
          }
        }
      }
    }
  }
  attr {
    key: "dtype"
    value {
      type: DT_STRING
    }
  }
  attr {
    key: "value"
    value {
      tensor {
        dtype: DT_STRING
        tensor_shape {
          dim {
            size: 1
          }
        }
        string_val: "ps_2/Variable_1"
      }
    }
  }
}
node {
  name: "save_1/RestoreV2_38/shape_and_slices"
  op: "Const"
  device: "/job:ps/task:2/device:CPU:0"
  attr {
    key: "_output_shapes"
    value {
      list {
        shape {
          dim {
            size: 1
          }
        }
      }
    }
  }
  attr {
    key: "dtype"
    value {
      type: DT_STRING
    }
  }
  attr {
    key: "value"
    value {
      tensor {
        dtype: DT_STRING
        tensor_shape {
          dim {
            size: 1
          }
        }
        string_val: ""
      }
    }
  }
}
node {
  name: "save_1/RestoreV2_38"
  op: "RestoreV2"
  input: "save_1/Const"
  input: "save_1/RestoreV2_38/tensor_names"
  input: "save_1/RestoreV2_38/shape_and_slices"
  device: "/job:ps/task:2/device:CPU:0"
  attr {
    key: "_output_shapes"
    value {
      list {
        shape {
          unknown_rank: true
        }
      }
    }
  }
  attr {
    key: "dtypes"
    value {
      list {
        type: DT_FLOAT
      }
    }
  }
}
node {
  name: "save_1/Assign_38"
  op: "Assign"
  input: "ps_2/Variable_1"
  input: "save_1/RestoreV2_38"
  device: "/job:ps/task:2"
  attr {
    key: "T"
    value {
      type: DT_FLOAT
    }
  }
  attr {
    key: "_class"
    value {
      list {
        s: "loc:@ps_2/Variable_1"
      }
    }
  }
  attr {
    key: "_output_shapes"
    value {
      list {
        shape {
          dim {
            size: 32
          }
        }
      }
    }
  }
  attr {
    key: "use_locking"
    value {
      b: true
    }
  }
  attr {
    key: "validate_shape"
    value {
      b: true
    }
  }
}
node {
  name: "save_1/RestoreV2_39/tensor_names"
  op: "Const"
  device: "/job:ps/task:2/device:CPU:0"
  attr {
    key: "_output_shapes"
    value {
      list {
        shape {
          dim {
            size: 1
          }
        }
      }
    }
  }
  attr {
    key: "dtype"
    value {
      type: DT_STRING
    }
  }
  attr {
    key: "value"
    value {
      tensor {
        dtype: DT_STRING
        tensor_shape {
          dim {
            size: 1
          }
        }
        string_val: "ps_2/Variable_1/Adam"
      }
    }
  }
}
node {
  name: "save_1/RestoreV2_39/shape_and_slices"
  op: "Const"
  device: "/job:ps/task:2/device:CPU:0"
  attr {
    key: "_output_shapes"
    value {
      list {
        shape {
          dim {
            size: 1
          }
        }
      }
    }
  }
  attr {
    key: "dtype"
    value {
      type: DT_STRING
    }
  }
  attr {
    key: "value"
    value {
      tensor {
        dtype: DT_STRING
        tensor_shape {
          dim {
            size: 1
          }
        }
        string_val: ""
      }
    }
  }
}
node {
  name: "save_1/RestoreV2_39"
  op: "RestoreV2"
  input: "save_1/Const"
  input: "save_1/RestoreV2_39/tensor_names"
  input: "save_1/RestoreV2_39/shape_and_slices"
  device: "/job:ps/task:2/device:CPU:0"
  attr {
    key: "_output_shapes"
    value {
      list {
        shape {
          unknown_rank: true
        }
      }
    }
  }
  attr {
    key: "dtypes"
    value {
      list {
        type: DT_FLOAT
      }
    }
  }
}
node {
  name: "save_1/Assign_39"
  op: "Assign"
  input: "ps_2/Variable_1/Adam"
  input: "save_1/RestoreV2_39"
  device: "/job:ps/task:2"
  attr {
    key: "T"
    value {
      type: DT_FLOAT
    }
  }
  attr {
    key: "_class"
    value {
      list {
        s: "loc:@ps_2/Variable_1"
      }
    }
  }
  attr {
    key: "_output_shapes"
    value {
      list {
        shape {
          dim {
            size: 32
          }
        }
      }
    }
  }
  attr {
    key: "use_locking"
    value {
      b: true
    }
  }
  attr {
    key: "validate_shape"
    value {
      b: true
    }
  }
}
node {
  name: "save_1/RestoreV2_40/tensor_names"
  op: "Const"
  device: "/job:ps/task:2/device:CPU:0"
  attr {
    key: "_output_shapes"
    value {
      list {
        shape {
          dim {
            size: 1
          }
        }
      }
    }
  }
  attr {
    key: "dtype"
    value {
      type: DT_STRING
    }
  }
  attr {
    key: "value"
    value {
      tensor {
        dtype: DT_STRING
        tensor_shape {
          dim {
            size: 1
          }
        }
        string_val: "ps_2/Variable_1/Adam_1"
      }
    }
  }
}
node {
  name: "save_1/RestoreV2_40/shape_and_slices"
  op: "Const"
  device: "/job:ps/task:2/device:CPU:0"
  attr {
    key: "_output_shapes"
    value {
      list {
        shape {
          dim {
            size: 1
          }
        }
      }
    }
  }
  attr {
    key: "dtype"
    value {
      type: DT_STRING
    }
  }
  attr {
    key: "value"
    value {
      tensor {
        dtype: DT_STRING
        tensor_shape {
          dim {
            size: 1
          }
        }
        string_val: ""
      }
    }
  }
}
node {
  name: "save_1/RestoreV2_40"
  op: "RestoreV2"
  input: "save_1/Const"
  input: "save_1/RestoreV2_40/tensor_names"
  input: "save_1/RestoreV2_40/shape_and_slices"
  device: "/job:ps/task:2/device:CPU:0"
  attr {
    key: "_output_shapes"
    value {
      list {
        shape {
          unknown_rank: true
        }
      }
    }
  }
  attr {
    key: "dtypes"
    value {
      list {
        type: DT_FLOAT
      }
    }
  }
}
node {
  name: "save_1/Assign_40"
  op: "Assign"
  input: "ps_2/Variable_1/Adam_1"
  input: "save_1/RestoreV2_40"
  device: "/job:ps/task:2"
  attr {
    key: "T"
    value {
      type: DT_FLOAT
    }
  }
  attr {
    key: "_class"
    value {
      list {
        s: "loc:@ps_2/Variable_1"
      }
    }
  }
  attr {
    key: "_output_shapes"
    value {
      list {
        shape {
          dim {
            size: 32
          }
        }
      }
    }
  }
  attr {
    key: "use_locking"
    value {
      b: true
    }
  }
  attr {
    key: "validate_shape"
    value {
      b: true
    }
  }
}
node {
  name: "save_1/RestoreV2_41/tensor_names"
  op: "Const"
  device: "/job:ps/task:2/device:CPU:0"
  attr {
    key: "_output_shapes"
    value {
      list {
        shape {
          dim {
            size: 1
          }
        }
      }
    }
  }
  attr {
    key: "dtype"
    value {
      type: DT_STRING
    }
  }
  attr {
    key: "value"
    value {
      tensor {
        dtype: DT_STRING
        tensor_shape {
          dim {
            size: 1
          }
        }
        string_val: "ps_2/Variable_2"
      }
    }
  }
}
node {
  name: "save_1/RestoreV2_41/shape_and_slices"
  op: "Const"
  device: "/job:ps/task:2/device:CPU:0"
  attr {
    key: "_output_shapes"
    value {
      list {
        shape {
          dim {
            size: 1
          }
        }
      }
    }
  }
  attr {
    key: "dtype"
    value {
      type: DT_STRING
    }
  }
  attr {
    key: "value"
    value {
      tensor {
        dtype: DT_STRING
        tensor_shape {
          dim {
            size: 1
          }
        }
        string_val: ""
      }
    }
  }
}
node {
  name: "save_1/RestoreV2_41"
  op: "RestoreV2"
  input: "save_1/Const"
  input: "save_1/RestoreV2_41/tensor_names"
  input: "save_1/RestoreV2_41/shape_and_slices"
  device: "/job:ps/task:2/device:CPU:0"
  attr {
    key: "_output_shapes"
    value {
      list {
        shape {
          unknown_rank: true
        }
      }
    }
  }
  attr {
    key: "dtypes"
    value {
      list {
        type: DT_FLOAT
      }
    }
  }
}
node {
  name: "save_1/Assign_41"
  op: "Assign"
  input: "ps_2/Variable_2"
  input: "save_1/RestoreV2_41"
  device: "/job:ps/task:2"
  attr {
    key: "T"
    value {
      type: DT_FLOAT
    }
  }
  attr {
    key: "_class"
    value {
      list {
        s: "loc:@ps_2/Variable_2"
      }
    }
  }
  attr {
    key: "_output_shapes"
    value {
      list {
        shape {
          dim {
            size: 5
          }
          dim {
            size: 5
          }
          dim {
            size: 32
          }
          dim {
            size: 64
          }
        }
      }
    }
  }
  attr {
    key: "use_locking"
    value {
      b: true
    }
  }
  attr {
    key: "validate_shape"
    value {
      b: true
    }
  }
}
node {
  name: "save_1/RestoreV2_42/tensor_names"
  op: "Const"
  device: "/job:ps/task:2/device:CPU:0"
  attr {
    key: "_output_shapes"
    value {
      list {
        shape {
          dim {
            size: 1
          }
        }
      }
    }
  }
  attr {
    key: "dtype"
    value {
      type: DT_STRING
    }
  }
  attr {
    key: "value"
    value {
      tensor {
        dtype: DT_STRING
        tensor_shape {
          dim {
            size: 1
          }
        }
        string_val: "ps_2/Variable_2/Adam"
      }
    }
  }
}
node {
  name: "save_1/RestoreV2_42/shape_and_slices"
  op: "Const"
  device: "/job:ps/task:2/device:CPU:0"
  attr {
    key: "_output_shapes"
    value {
      list {
        shape {
          dim {
            size: 1
          }
        }
      }
    }
  }
  attr {
    key: "dtype"
    value {
      type: DT_STRING
    }
  }
  attr {
    key: "value"
    value {
      tensor {
        dtype: DT_STRING
        tensor_shape {
          dim {
            size: 1
          }
        }
        string_val: ""
      }
    }
  }
}
node {
  name: "save_1/RestoreV2_42"
  op: "RestoreV2"
  input: "save_1/Const"
  input: "save_1/RestoreV2_42/tensor_names"
  input: "save_1/RestoreV2_42/shape_and_slices"
  device: "/job:ps/task:2/device:CPU:0"
  attr {
    key: "_output_shapes"
    value {
      list {
        shape {
          unknown_rank: true
        }
      }
    }
  }
  attr {
    key: "dtypes"
    value {
      list {
        type: DT_FLOAT
      }
    }
  }
}
node {
  name: "save_1/Assign_42"
  op: "Assign"
  input: "ps_2/Variable_2/Adam"
  input: "save_1/RestoreV2_42"
  device: "/job:ps/task:2"
  attr {
    key: "T"
    value {
      type: DT_FLOAT
    }
  }
  attr {
    key: "_class"
    value {
      list {
        s: "loc:@ps_2/Variable_2"
      }
    }
  }
  attr {
    key: "_output_shapes"
    value {
      list {
        shape {
          dim {
            size: 5
          }
          dim {
            size: 5
          }
          dim {
            size: 32
          }
          dim {
            size: 64
          }
        }
      }
    }
  }
  attr {
    key: "use_locking"
    value {
      b: true
    }
  }
  attr {
    key: "validate_shape"
    value {
      b: true
    }
  }
}
node {
  name: "save_1/RestoreV2_43/tensor_names"
  op: "Const"
  device: "/job:ps/task:2/device:CPU:0"
  attr {
    key: "_output_shapes"
    value {
      list {
        shape {
          dim {
            size: 1
          }
        }
      }
    }
  }
  attr {
    key: "dtype"
    value {
      type: DT_STRING
    }
  }
  attr {
    key: "value"
    value {
      tensor {
        dtype: DT_STRING
        tensor_shape {
          dim {
            size: 1
          }
        }
        string_val: "ps_2/Variable_2/Adam_1"
      }
    }
  }
}
node {
  name: "save_1/RestoreV2_43/shape_and_slices"
  op: "Const"
  device: "/job:ps/task:2/device:CPU:0"
  attr {
    key: "_output_shapes"
    value {
      list {
        shape {
          dim {
            size: 1
          }
        }
      }
    }
  }
  attr {
    key: "dtype"
    value {
      type: DT_STRING
    }
  }
  attr {
    key: "value"
    value {
      tensor {
        dtype: DT_STRING
        tensor_shape {
          dim {
            size: 1
          }
        }
        string_val: ""
      }
    }
  }
}
node {
  name: "save_1/RestoreV2_43"
  op: "RestoreV2"
  input: "save_1/Const"
  input: "save_1/RestoreV2_43/tensor_names"
  input: "save_1/RestoreV2_43/shape_and_slices"
  device: "/job:ps/task:2/device:CPU:0"
  attr {
    key: "_output_shapes"
    value {
      list {
        shape {
          unknown_rank: true
        }
      }
    }
  }
  attr {
    key: "dtypes"
    value {
      list {
        type: DT_FLOAT
      }
    }
  }
}
node {
  name: "save_1/Assign_43"
  op: "Assign"
  input: "ps_2/Variable_2/Adam_1"
  input: "save_1/RestoreV2_43"
  device: "/job:ps/task:2"
  attr {
    key: "T"
    value {
      type: DT_FLOAT
    }
  }
  attr {
    key: "_class"
    value {
      list {
        s: "loc:@ps_2/Variable_2"
      }
    }
  }
  attr {
    key: "_output_shapes"
    value {
      list {
        shape {
          dim {
            size: 5
          }
          dim {
            size: 5
          }
          dim {
            size: 32
          }
          dim {
            size: 64
          }
        }
      }
    }
  }
  attr {
    key: "use_locking"
    value {
      b: true
    }
  }
  attr {
    key: "validate_shape"
    value {
      b: true
    }
  }
}
node {
  name: "save_1/RestoreV2_44/tensor_names"
  op: "Const"
  device: "/job:ps/task:2/device:CPU:0"
  attr {
    key: "_output_shapes"
    value {
      list {
        shape {
          dim {
            size: 1
          }
        }
      }
    }
  }
  attr {
    key: "dtype"
    value {
      type: DT_STRING
    }
  }
  attr {
    key: "value"
    value {
      tensor {
        dtype: DT_STRING
        tensor_shape {
          dim {
            size: 1
          }
        }
        string_val: "ps_2/Variable_3"
      }
    }
  }
}
node {
  name: "save_1/RestoreV2_44/shape_and_slices"
  op: "Const"
  device: "/job:ps/task:2/device:CPU:0"
  attr {
    key: "_output_shapes"
    value {
      list {
        shape {
          dim {
            size: 1
          }
        }
      }
    }
  }
  attr {
    key: "dtype"
    value {
      type: DT_STRING
    }
  }
  attr {
    key: "value"
    value {
      tensor {
        dtype: DT_STRING
        tensor_shape {
          dim {
            size: 1
          }
        }
        string_val: ""
      }
    }
  }
}
node {
  name: "save_1/RestoreV2_44"
  op: "RestoreV2"
  input: "save_1/Const"
  input: "save_1/RestoreV2_44/tensor_names"
  input: "save_1/RestoreV2_44/shape_and_slices"
  device: "/job:ps/task:2/device:CPU:0"
  attr {
    key: "_output_shapes"
    value {
      list {
        shape {
          unknown_rank: true
        }
      }
    }
  }
  attr {
    key: "dtypes"
    value {
      list {
        type: DT_FLOAT
      }
    }
  }
}
node {
  name: "save_1/Assign_44"
  op: "Assign"
  input: "ps_2/Variable_3"
  input: "save_1/RestoreV2_44"
  device: "/job:ps/task:2"
  attr {
    key: "T"
    value {
      type: DT_FLOAT
    }
  }
  attr {
    key: "_class"
    value {
      list {
        s: "loc:@ps_2/Variable_3"
      }
    }
  }
  attr {
    key: "_output_shapes"
    value {
      list {
        shape {
          dim {
            size: 64
          }
        }
      }
    }
  }
  attr {
    key: "use_locking"
    value {
      b: true
    }
  }
  attr {
    key: "validate_shape"
    value {
      b: true
    }
  }
}
node {
  name: "save_1/RestoreV2_45/tensor_names"
  op: "Const"
  device: "/job:ps/task:2/device:CPU:0"
  attr {
    key: "_output_shapes"
    value {
      list {
        shape {
          dim {
            size: 1
          }
        }
      }
    }
  }
  attr {
    key: "dtype"
    value {
      type: DT_STRING
    }
  }
  attr {
    key: "value"
    value {
      tensor {
        dtype: DT_STRING
        tensor_shape {
          dim {
            size: 1
          }
        }
        string_val: "ps_2/Variable_3/Adam"
      }
    }
  }
}
node {
  name: "save_1/RestoreV2_45/shape_and_slices"
  op: "Const"
  device: "/job:ps/task:2/device:CPU:0"
  attr {
    key: "_output_shapes"
    value {
      list {
        shape {
          dim {
            size: 1
          }
        }
      }
    }
  }
  attr {
    key: "dtype"
    value {
      type: DT_STRING
    }
  }
  attr {
    key: "value"
    value {
      tensor {
        dtype: DT_STRING
        tensor_shape {
          dim {
            size: 1
          }
        }
        string_val: ""
      }
    }
  }
}
node {
  name: "save_1/RestoreV2_45"
  op: "RestoreV2"
  input: "save_1/Const"
  input: "save_1/RestoreV2_45/tensor_names"
  input: "save_1/RestoreV2_45/shape_and_slices"
  device: "/job:ps/task:2/device:CPU:0"
  attr {
    key: "_output_shapes"
    value {
      list {
        shape {
          unknown_rank: true
        }
      }
    }
  }
  attr {
    key: "dtypes"
    value {
      list {
        type: DT_FLOAT
      }
    }
  }
}
node {
  name: "save_1/Assign_45"
  op: "Assign"
  input: "ps_2/Variable_3/Adam"
  input: "save_1/RestoreV2_45"
  device: "/job:ps/task:2"
  attr {
    key: "T"
    value {
      type: DT_FLOAT
    }
  }
  attr {
    key: "_class"
    value {
      list {
        s: "loc:@ps_2/Variable_3"
      }
    }
  }
  attr {
    key: "_output_shapes"
    value {
      list {
        shape {
          dim {
            size: 64
          }
        }
      }
    }
  }
  attr {
    key: "use_locking"
    value {
      b: true
    }
  }
  attr {
    key: "validate_shape"
    value {
      b: true
    }
  }
}
node {
  name: "save_1/RestoreV2_46/tensor_names"
  op: "Const"
  device: "/job:ps/task:2/device:CPU:0"
  attr {
    key: "_output_shapes"
    value {
      list {
        shape {
          dim {
            size: 1
          }
        }
      }
    }
  }
  attr {
    key: "dtype"
    value {
      type: DT_STRING
    }
  }
  attr {
    key: "value"
    value {
      tensor {
        dtype: DT_STRING
        tensor_shape {
          dim {
            size: 1
          }
        }
        string_val: "ps_2/Variable_3/Adam_1"
      }
    }
  }
}
node {
  name: "save_1/RestoreV2_46/shape_and_slices"
  op: "Const"
  device: "/job:ps/task:2/device:CPU:0"
  attr {
    key: "_output_shapes"
    value {
      list {
        shape {
          dim {
            size: 1
          }
        }
      }
    }
  }
  attr {
    key: "dtype"
    value {
      type: DT_STRING
    }
  }
  attr {
    key: "value"
    value {
      tensor {
        dtype: DT_STRING
        tensor_shape {
          dim {
            size: 1
          }
        }
        string_val: ""
      }
    }
  }
}
node {
  name: "save_1/RestoreV2_46"
  op: "RestoreV2"
  input: "save_1/Const"
  input: "save_1/RestoreV2_46/tensor_names"
  input: "save_1/RestoreV2_46/shape_and_slices"
  device: "/job:ps/task:2/device:CPU:0"
  attr {
    key: "_output_shapes"
    value {
      list {
        shape {
          unknown_rank: true
        }
      }
    }
  }
  attr {
    key: "dtypes"
    value {
      list {
        type: DT_FLOAT
      }
    }
  }
}
node {
  name: "save_1/Assign_46"
  op: "Assign"
  input: "ps_2/Variable_3/Adam_1"
  input: "save_1/RestoreV2_46"
  device: "/job:ps/task:2"
  attr {
    key: "T"
    value {
      type: DT_FLOAT
    }
  }
  attr {
    key: "_class"
    value {
      list {
        s: "loc:@ps_2/Variable_3"
      }
    }
  }
  attr {
    key: "_output_shapes"
    value {
      list {
        shape {
          dim {
            size: 64
          }
        }
      }
    }
  }
  attr {
    key: "use_locking"
    value {
      b: true
    }
  }
  attr {
    key: "validate_shape"
    value {
      b: true
    }
  }
}
node {
  name: "save_1/RestoreV2_47/tensor_names"
  op: "Const"
  device: "/job:ps/task:2/device:CPU:0"
  attr {
    key: "_output_shapes"
    value {
      list {
        shape {
          dim {
            size: 1
          }
        }
      }
    }
  }
  attr {
    key: "dtype"
    value {
      type: DT_STRING
    }
  }
  attr {
    key: "value"
    value {
      tensor {
        dtype: DT_STRING
        tensor_shape {
          dim {
            size: 1
          }
        }
        string_val: "ps_2/Variable_4"
      }
    }
  }
}
node {
  name: "save_1/RestoreV2_47/shape_and_slices"
  op: "Const"
  device: "/job:ps/task:2/device:CPU:0"
  attr {
    key: "_output_shapes"
    value {
      list {
        shape {
          dim {
            size: 1
          }
        }
      }
    }
  }
  attr {
    key: "dtype"
    value {
      type: DT_STRING
    }
  }
  attr {
    key: "value"
    value {
      tensor {
        dtype: DT_STRING
        tensor_shape {
          dim {
            size: 1
          }
        }
        string_val: ""
      }
    }
  }
}
node {
  name: "save_1/RestoreV2_47"
  op: "RestoreV2"
  input: "save_1/Const"
  input: "save_1/RestoreV2_47/tensor_names"
  input: "save_1/RestoreV2_47/shape_and_slices"
  device: "/job:ps/task:2/device:CPU:0"
  attr {
    key: "_output_shapes"
    value {
      list {
        shape {
          unknown_rank: true
        }
      }
    }
  }
  attr {
    key: "dtypes"
    value {
      list {
        type: DT_FLOAT
      }
    }
  }
}
node {
  name: "save_1/Assign_47"
  op: "Assign"
  input: "ps_2/Variable_4"
  input: "save_1/RestoreV2_47"
  device: "/job:ps/task:2"
  attr {
    key: "T"
    value {
      type: DT_FLOAT
    }
  }
  attr {
    key: "_class"
    value {
      list {
        s: "loc:@ps_2/Variable_4"
      }
    }
  }
  attr {
    key: "_output_shapes"
    value {
      list {
        shape {
          dim {
            size: 3136
          }
          dim {
            size: 1024
          }
        }
      }
    }
  }
  attr {
    key: "use_locking"
    value {
      b: true
    }
  }
  attr {
    key: "validate_shape"
    value {
      b: true
    }
  }
}
node {
  name: "save_1/RestoreV2_48/tensor_names"
  op: "Const"
  device: "/job:ps/task:2/device:CPU:0"
  attr {
    key: "_output_shapes"
    value {
      list {
        shape {
          dim {
            size: 1
          }
        }
      }
    }
  }
  attr {
    key: "dtype"
    value {
      type: DT_STRING
    }
  }
  attr {
    key: "value"
    value {
      tensor {
        dtype: DT_STRING
        tensor_shape {
          dim {
            size: 1
          }
        }
        string_val: "ps_2/Variable_4/Adam"
      }
    }
  }
}
node {
  name: "save_1/RestoreV2_48/shape_and_slices"
  op: "Const"
  device: "/job:ps/task:2/device:CPU:0"
  attr {
    key: "_output_shapes"
    value {
      list {
        shape {
          dim {
            size: 1
          }
        }
      }
    }
  }
  attr {
    key: "dtype"
    value {
      type: DT_STRING
    }
  }
  attr {
    key: "value"
    value {
      tensor {
        dtype: DT_STRING
        tensor_shape {
          dim {
            size: 1
          }
        }
        string_val: ""
      }
    }
  }
}
node {
  name: "save_1/RestoreV2_48"
  op: "RestoreV2"
  input: "save_1/Const"
  input: "save_1/RestoreV2_48/tensor_names"
  input: "save_1/RestoreV2_48/shape_and_slices"
  device: "/job:ps/task:2/device:CPU:0"
  attr {
    key: "_output_shapes"
    value {
      list {
        shape {
          unknown_rank: true
        }
      }
    }
  }
  attr {
    key: "dtypes"
    value {
      list {
        type: DT_FLOAT
      }
    }
  }
}
node {
  name: "save_1/Assign_48"
  op: "Assign"
  input: "ps_2/Variable_4/Adam"
  input: "save_1/RestoreV2_48"
  device: "/job:ps/task:2"
  attr {
    key: "T"
    value {
      type: DT_FLOAT
    }
  }
  attr {
    key: "_class"
    value {
      list {
        s: "loc:@ps_2/Variable_4"
      }
    }
  }
  attr {
    key: "_output_shapes"
    value {
      list {
        shape {
          dim {
            size: 3136
          }
          dim {
            size: 1024
          }
        }
      }
    }
  }
  attr {
    key: "use_locking"
    value {
      b: true
    }
  }
  attr {
    key: "validate_shape"
    value {
      b: true
    }
  }
}
node {
  name: "save_1/RestoreV2_49/tensor_names"
  op: "Const"
  device: "/job:ps/task:2/device:CPU:0"
  attr {
    key: "_output_shapes"
    value {
      list {
        shape {
          dim {
            size: 1
          }
        }
      }
    }
  }
  attr {
    key: "dtype"
    value {
      type: DT_STRING
    }
  }
  attr {
    key: "value"
    value {
      tensor {
        dtype: DT_STRING
        tensor_shape {
          dim {
            size: 1
          }
        }
        string_val: "ps_2/Variable_4/Adam_1"
      }
    }
  }
}
node {
  name: "save_1/RestoreV2_49/shape_and_slices"
  op: "Const"
  device: "/job:ps/task:2/device:CPU:0"
  attr {
    key: "_output_shapes"
    value {
      list {
        shape {
          dim {
            size: 1
          }
        }
      }
    }
  }
  attr {
    key: "dtype"
    value {
      type: DT_STRING
    }
  }
  attr {
    key: "value"
    value {
      tensor {
        dtype: DT_STRING
        tensor_shape {
          dim {
            size: 1
          }
        }
        string_val: ""
      }
    }
  }
}
node {
  name: "save_1/RestoreV2_49"
  op: "RestoreV2"
  input: "save_1/Const"
  input: "save_1/RestoreV2_49/tensor_names"
  input: "save_1/RestoreV2_49/shape_and_slices"
  device: "/job:ps/task:2/device:CPU:0"
  attr {
    key: "_output_shapes"
    value {
      list {
        shape {
          unknown_rank: true
        }
      }
    }
  }
  attr {
    key: "dtypes"
    value {
      list {
        type: DT_FLOAT
      }
    }
  }
}
node {
  name: "save_1/Assign_49"
  op: "Assign"
  input: "ps_2/Variable_4/Adam_1"
  input: "save_1/RestoreV2_49"
  device: "/job:ps/task:2"
  attr {
    key: "T"
    value {
      type: DT_FLOAT
    }
  }
  attr {
    key: "_class"
    value {
      list {
        s: "loc:@ps_2/Variable_4"
      }
    }
  }
  attr {
    key: "_output_shapes"
    value {
      list {
        shape {
          dim {
            size: 3136
          }
          dim {
            size: 1024
          }
        }
      }
    }
  }
  attr {
    key: "use_locking"
    value {
      b: true
    }
  }
  attr {
    key: "validate_shape"
    value {
      b: true
    }
  }
}
node {
  name: "save_1/RestoreV2_50/tensor_names"
  op: "Const"
  device: "/job:ps/task:2/device:CPU:0"
  attr {
    key: "_output_shapes"
    value {
      list {
        shape {
          dim {
            size: 1
          }
        }
      }
    }
  }
  attr {
    key: "dtype"
    value {
      type: DT_STRING
    }
  }
  attr {
    key: "value"
    value {
      tensor {
        dtype: DT_STRING
        tensor_shape {
          dim {
            size: 1
          }
        }
        string_val: "ps_2/Variable_5"
      }
    }
  }
}
node {
  name: "save_1/RestoreV2_50/shape_and_slices"
  op: "Const"
  device: "/job:ps/task:2/device:CPU:0"
  attr {
    key: "_output_shapes"
    value {
      list {
        shape {
          dim {
            size: 1
          }
        }
      }
    }
  }
  attr {
    key: "dtype"
    value {
      type: DT_STRING
    }
  }
  attr {
    key: "value"
    value {
      tensor {
        dtype: DT_STRING
        tensor_shape {
          dim {
            size: 1
          }
        }
        string_val: ""
      }
    }
  }
}
node {
  name: "save_1/RestoreV2_50"
  op: "RestoreV2"
  input: "save_1/Const"
  input: "save_1/RestoreV2_50/tensor_names"
  input: "save_1/RestoreV2_50/shape_and_slices"
  device: "/job:ps/task:2/device:CPU:0"
  attr {
    key: "_output_shapes"
    value {
      list {
        shape {
          unknown_rank: true
        }
      }
    }
  }
  attr {
    key: "dtypes"
    value {
      list {
        type: DT_FLOAT
      }
    }
  }
}
node {
  name: "save_1/Assign_50"
  op: "Assign"
  input: "ps_2/Variable_5"
  input: "save_1/RestoreV2_50"
  device: "/job:ps/task:2"
  attr {
    key: "T"
    value {
      type: DT_FLOAT
    }
  }
  attr {
    key: "_class"
    value {
      list {
        s: "loc:@ps_2/Variable_5"
      }
    }
  }
  attr {
    key: "_output_shapes"
    value {
      list {
        shape {
          dim {
            size: 1024
          }
        }
      }
    }
  }
  attr {
    key: "use_locking"
    value {
      b: true
    }
  }
  attr {
    key: "validate_shape"
    value {
      b: true
    }
  }
}
node {
  name: "save_1/RestoreV2_51/tensor_names"
  op: "Const"
  device: "/job:ps/task:2/device:CPU:0"
  attr {
    key: "_output_shapes"
    value {
      list {
        shape {
          dim {
            size: 1
          }
        }
      }
    }
  }
  attr {
    key: "dtype"
    value {
      type: DT_STRING
    }
  }
  attr {
    key: "value"
    value {
      tensor {
        dtype: DT_STRING
        tensor_shape {
          dim {
            size: 1
          }
        }
        string_val: "ps_2/Variable_5/Adam"
      }
    }
  }
}
node {
  name: "save_1/RestoreV2_51/shape_and_slices"
  op: "Const"
  device: "/job:ps/task:2/device:CPU:0"
  attr {
    key: "_output_shapes"
    value {
      list {
        shape {
          dim {
            size: 1
          }
        }
      }
    }
  }
  attr {
    key: "dtype"
    value {
      type: DT_STRING
    }
  }
  attr {
    key: "value"
    value {
      tensor {
        dtype: DT_STRING
        tensor_shape {
          dim {
            size: 1
          }
        }
        string_val: ""
      }
    }
  }
}
node {
  name: "save_1/RestoreV2_51"
  op: "RestoreV2"
  input: "save_1/Const"
  input: "save_1/RestoreV2_51/tensor_names"
  input: "save_1/RestoreV2_51/shape_and_slices"
  device: "/job:ps/task:2/device:CPU:0"
  attr {
    key: "_output_shapes"
    value {
      list {
        shape {
          unknown_rank: true
        }
      }
    }
  }
  attr {
    key: "dtypes"
    value {
      list {
        type: DT_FLOAT
      }
    }
  }
}
node {
  name: "save_1/Assign_51"
  op: "Assign"
  input: "ps_2/Variable_5/Adam"
  input: "save_1/RestoreV2_51"
  device: "/job:ps/task:2"
  attr {
    key: "T"
    value {
      type: DT_FLOAT
    }
  }
  attr {
    key: "_class"
    value {
      list {
        s: "loc:@ps_2/Variable_5"
      }
    }
  }
  attr {
    key: "_output_shapes"
    value {
      list {
        shape {
          dim {
            size: 1024
          }
        }
      }
    }
  }
  attr {
    key: "use_locking"
    value {
      b: true
    }
  }
  attr {
    key: "validate_shape"
    value {
      b: true
    }
  }
}
node {
  name: "save_1/RestoreV2_52/tensor_names"
  op: "Const"
  device: "/job:ps/task:2/device:CPU:0"
  attr {
    key: "_output_shapes"
    value {
      list {
        shape {
          dim {
            size: 1
          }
        }
      }
    }
  }
  attr {
    key: "dtype"
    value {
      type: DT_STRING
    }
  }
  attr {
    key: "value"
    value {
      tensor {
        dtype: DT_STRING
        tensor_shape {
          dim {
            size: 1
          }
        }
        string_val: "ps_2/Variable_5/Adam_1"
      }
    }
  }
}
node {
  name: "save_1/RestoreV2_52/shape_and_slices"
  op: "Const"
  device: "/job:ps/task:2/device:CPU:0"
  attr {
    key: "_output_shapes"
    value {
      list {
        shape {
          dim {
            size: 1
          }
        }
      }
    }
  }
  attr {
    key: "dtype"
    value {
      type: DT_STRING
    }
  }
  attr {
    key: "value"
    value {
      tensor {
        dtype: DT_STRING
        tensor_shape {
          dim {
            size: 1
          }
        }
        string_val: ""
      }
    }
  }
}
node {
  name: "save_1/RestoreV2_52"
  op: "RestoreV2"
  input: "save_1/Const"
  input: "save_1/RestoreV2_52/tensor_names"
  input: "save_1/RestoreV2_52/shape_and_slices"
  device: "/job:ps/task:2/device:CPU:0"
  attr {
    key: "_output_shapes"
    value {
      list {
        shape {
          unknown_rank: true
        }
      }
    }
  }
  attr {
    key: "dtypes"
    value {
      list {
        type: DT_FLOAT
      }
    }
  }
}
node {
  name: "save_1/Assign_52"
  op: "Assign"
  input: "ps_2/Variable_5/Adam_1"
  input: "save_1/RestoreV2_52"
  device: "/job:ps/task:2"
  attr {
    key: "T"
    value {
      type: DT_FLOAT
    }
  }
  attr {
    key: "_class"
    value {
      list {
        s: "loc:@ps_2/Variable_5"
      }
    }
  }
  attr {
    key: "_output_shapes"
    value {
      list {
        shape {
          dim {
            size: 1024
          }
        }
      }
    }
  }
  attr {
    key: "use_locking"
    value {
      b: true
    }
  }
  attr {
    key: "validate_shape"
    value {
      b: true
    }
  }
}
node {
  name: "save_1/RestoreV2_53/tensor_names"
  op: "Const"
  device: "/job:ps/task:2/device:CPU:0"
  attr {
    key: "_output_shapes"
    value {
      list {
        shape {
          dim {
            size: 1
          }
        }
      }
    }
  }
  attr {
    key: "dtype"
    value {
      type: DT_STRING
    }
  }
  attr {
    key: "value"
    value {
      tensor {
        dtype: DT_STRING
        tensor_shape {
          dim {
            size: 1
          }
        }
        string_val: "ps_2/Variable_6"
      }
    }
  }
}
node {
  name: "save_1/RestoreV2_53/shape_and_slices"
  op: "Const"
  device: "/job:ps/task:2/device:CPU:0"
  attr {
    key: "_output_shapes"
    value {
      list {
        shape {
          dim {
            size: 1
          }
        }
      }
    }
  }
  attr {
    key: "dtype"
    value {
      type: DT_STRING
    }
  }
  attr {
    key: "value"
    value {
      tensor {
        dtype: DT_STRING
        tensor_shape {
          dim {
            size: 1
          }
        }
        string_val: ""
      }
    }
  }
}
node {
  name: "save_1/RestoreV2_53"
  op: "RestoreV2"
  input: "save_1/Const"
  input: "save_1/RestoreV2_53/tensor_names"
  input: "save_1/RestoreV2_53/shape_and_slices"
  device: "/job:ps/task:2/device:CPU:0"
  attr {
    key: "_output_shapes"
    value {
      list {
        shape {
          unknown_rank: true
        }
      }
    }
  }
  attr {
    key: "dtypes"
    value {
      list {
        type: DT_FLOAT
      }
    }
  }
}
node {
  name: "save_1/Assign_53"
  op: "Assign"
  input: "ps_2/Variable_6"
  input: "save_1/RestoreV2_53"
  device: "/job:ps/task:2"
  attr {
    key: "T"
    value {
      type: DT_FLOAT
    }
  }
  attr {
    key: "_class"
    value {
      list {
        s: "loc:@ps_2/Variable_6"
      }
    }
  }
  attr {
    key: "_output_shapes"
    value {
      list {
        shape {
          dim {
            size: 1024
          }
          dim {
            size: 10
          }
        }
      }
    }
  }
  attr {
    key: "use_locking"
    value {
      b: true
    }
  }
  attr {
    key: "validate_shape"
    value {
      b: true
    }
  }
}
node {
  name: "save_1/RestoreV2_54/tensor_names"
  op: "Const"
  device: "/job:ps/task:2/device:CPU:0"
  attr {
    key: "_output_shapes"
    value {
      list {
        shape {
          dim {
            size: 1
          }
        }
      }
    }
  }
  attr {
    key: "dtype"
    value {
      type: DT_STRING
    }
  }
  attr {
    key: "value"
    value {
      tensor {
        dtype: DT_STRING
        tensor_shape {
          dim {
            size: 1
          }
        }
        string_val: "ps_2/Variable_6/Adam"
      }
    }
  }
}
node {
  name: "save_1/RestoreV2_54/shape_and_slices"
  op: "Const"
  device: "/job:ps/task:2/device:CPU:0"
  attr {
    key: "_output_shapes"
    value {
      list {
        shape {
          dim {
            size: 1
          }
        }
      }
    }
  }
  attr {
    key: "dtype"
    value {
      type: DT_STRING
    }
  }
  attr {
    key: "value"
    value {
      tensor {
        dtype: DT_STRING
        tensor_shape {
          dim {
            size: 1
          }
        }
        string_val: ""
      }
    }
  }
}
node {
  name: "save_1/RestoreV2_54"
  op: "RestoreV2"
  input: "save_1/Const"
  input: "save_1/RestoreV2_54/tensor_names"
  input: "save_1/RestoreV2_54/shape_and_slices"
  device: "/job:ps/task:2/device:CPU:0"
  attr {
    key: "_output_shapes"
    value {
      list {
        shape {
          unknown_rank: true
        }
      }
    }
  }
  attr {
    key: "dtypes"
    value {
      list {
        type: DT_FLOAT
      }
    }
  }
}
node {
  name: "save_1/Assign_54"
  op: "Assign"
  input: "ps_2/Variable_6/Adam"
  input: "save_1/RestoreV2_54"
  device: "/job:ps/task:2"
  attr {
    key: "T"
    value {
      type: DT_FLOAT
    }
  }
  attr {
    key: "_class"
    value {
      list {
        s: "loc:@ps_2/Variable_6"
      }
    }
  }
  attr {
    key: "_output_shapes"
    value {
      list {
        shape {
          dim {
            size: 1024
          }
          dim {
            size: 10
          }
        }
      }
    }
  }
  attr {
    key: "use_locking"
    value {
      b: true
    }
  }
  attr {
    key: "validate_shape"
    value {
      b: true
    }
  }
}
node {
  name: "save_1/RestoreV2_55/tensor_names"
  op: "Const"
  device: "/job:ps/task:2/device:CPU:0"
  attr {
    key: "_output_shapes"
    value {
      list {
        shape {
          dim {
            size: 1
          }
        }
      }
    }
  }
  attr {
    key: "dtype"
    value {
      type: DT_STRING
    }
  }
  attr {
    key: "value"
    value {
      tensor {
        dtype: DT_STRING
        tensor_shape {
          dim {
            size: 1
          }
        }
        string_val: "ps_2/Variable_6/Adam_1"
      }
    }
  }
}
node {
  name: "save_1/RestoreV2_55/shape_and_slices"
  op: "Const"
  device: "/job:ps/task:2/device:CPU:0"
  attr {
    key: "_output_shapes"
    value {
      list {
        shape {
          dim {
            size: 1
          }
        }
      }
    }
  }
  attr {
    key: "dtype"
    value {
      type: DT_STRING
    }
  }
  attr {
    key: "value"
    value {
      tensor {
        dtype: DT_STRING
        tensor_shape {
          dim {
            size: 1
          }
        }
        string_val: ""
      }
    }
  }
}
node {
  name: "save_1/RestoreV2_55"
  op: "RestoreV2"
  input: "save_1/Const"
  input: "save_1/RestoreV2_55/tensor_names"
  input: "save_1/RestoreV2_55/shape_and_slices"
  device: "/job:ps/task:2/device:CPU:0"
  attr {
    key: "_output_shapes"
    value {
      list {
        shape {
          unknown_rank: true
        }
      }
    }
  }
  attr {
    key: "dtypes"
    value {
      list {
        type: DT_FLOAT
      }
    }
  }
}
node {
  name: "save_1/Assign_55"
  op: "Assign"
  input: "ps_2/Variable_6/Adam_1"
  input: "save_1/RestoreV2_55"
  device: "/job:ps/task:2"
  attr {
    key: "T"
    value {
      type: DT_FLOAT
    }
  }
  attr {
    key: "_class"
    value {
      list {
        s: "loc:@ps_2/Variable_6"
      }
    }
  }
  attr {
    key: "_output_shapes"
    value {
      list {
        shape {
          dim {
            size: 1024
          }
          dim {
            size: 10
          }
        }
      }
    }
  }
  attr {
    key: "use_locking"
    value {
      b: true
    }
  }
  attr {
    key: "validate_shape"
    value {
      b: true
    }
  }
}
node {
  name: "save_1/RestoreV2_56/tensor_names"
  op: "Const"
  device: "/job:ps/task:2/device:CPU:0"
  attr {
    key: "_output_shapes"
    value {
      list {
        shape {
          dim {
            size: 1
          }
        }
      }
    }
  }
  attr {
    key: "dtype"
    value {
      type: DT_STRING
    }
  }
  attr {
    key: "value"
    value {
      tensor {
        dtype: DT_STRING
        tensor_shape {
          dim {
            size: 1
          }
        }
        string_val: "ps_2/Variable_7"
      }
    }
  }
}
node {
  name: "save_1/RestoreV2_56/shape_and_slices"
  op: "Const"
  device: "/job:ps/task:2/device:CPU:0"
  attr {
    key: "_output_shapes"
    value {
      list {
        shape {
          dim {
            size: 1
          }
        }
      }
    }
  }
  attr {
    key: "dtype"
    value {
      type: DT_STRING
    }
  }
  attr {
    key: "value"
    value {
      tensor {
        dtype: DT_STRING
        tensor_shape {
          dim {
            size: 1
          }
        }
        string_val: ""
      }
    }
  }
}
node {
  name: "save_1/RestoreV2_56"
  op: "RestoreV2"
  input: "save_1/Const"
  input: "save_1/RestoreV2_56/tensor_names"
  input: "save_1/RestoreV2_56/shape_and_slices"
  device: "/job:ps/task:2/device:CPU:0"
  attr {
    key: "_output_shapes"
    value {
      list {
        shape {
          unknown_rank: true
        }
      }
    }
  }
  attr {
    key: "dtypes"
    value {
      list {
        type: DT_FLOAT
      }
    }
  }
}
node {
  name: "save_1/Assign_56"
  op: "Assign"
  input: "ps_2/Variable_7"
  input: "save_1/RestoreV2_56"
  device: "/job:ps/task:2"
  attr {
    key: "T"
    value {
      type: DT_FLOAT
    }
  }
  attr {
    key: "_class"
    value {
      list {
        s: "loc:@ps_2/Variable_7"
      }
    }
  }
  attr {
    key: "_output_shapes"
    value {
      list {
        shape {
          dim {
            size: 10
          }
        }
      }
    }
  }
  attr {
    key: "use_locking"
    value {
      b: true
    }
  }
  attr {
    key: "validate_shape"
    value {
      b: true
    }
  }
}
node {
  name: "save_1/RestoreV2_57/tensor_names"
  op: "Const"
  device: "/job:ps/task:2/device:CPU:0"
  attr {
    key: "_output_shapes"
    value {
      list {
        shape {
          dim {
            size: 1
          }
        }
      }
    }
  }
  attr {
    key: "dtype"
    value {
      type: DT_STRING
    }
  }
  attr {
    key: "value"
    value {
      tensor {
        dtype: DT_STRING
        tensor_shape {
          dim {
            size: 1
          }
        }
        string_val: "ps_2/Variable_7/Adam"
      }
    }
  }
}
node {
  name: "save_1/RestoreV2_57/shape_and_slices"
  op: "Const"
  device: "/job:ps/task:2/device:CPU:0"
  attr {
    key: "_output_shapes"
    value {
      list {
        shape {
          dim {
            size: 1
          }
        }
      }
    }
  }
  attr {
    key: "dtype"
    value {
      type: DT_STRING
    }
  }
  attr {
    key: "value"
    value {
      tensor {
        dtype: DT_STRING
        tensor_shape {
          dim {
            size: 1
          }
        }
        string_val: ""
      }
    }
  }
}
node {
  name: "save_1/RestoreV2_57"
  op: "RestoreV2"
  input: "save_1/Const"
  input: "save_1/RestoreV2_57/tensor_names"
  input: "save_1/RestoreV2_57/shape_and_slices"
  device: "/job:ps/task:2/device:CPU:0"
  attr {
    key: "_output_shapes"
    value {
      list {
        shape {
          unknown_rank: true
        }
      }
    }
  }
  attr {
    key: "dtypes"
    value {
      list {
        type: DT_FLOAT
      }
    }
  }
}
node {
  name: "save_1/Assign_57"
  op: "Assign"
  input: "ps_2/Variable_7/Adam"
  input: "save_1/RestoreV2_57"
  device: "/job:ps/task:2"
  attr {
    key: "T"
    value {
      type: DT_FLOAT
    }
  }
  attr {
    key: "_class"
    value {
      list {
        s: "loc:@ps_2/Variable_7"
      }
    }
  }
  attr {
    key: "_output_shapes"
    value {
      list {
        shape {
          dim {
            size: 10
          }
        }
      }
    }
  }
  attr {
    key: "use_locking"
    value {
      b: true
    }
  }
  attr {
    key: "validate_shape"
    value {
      b: true
    }
  }
}
node {
  name: "save_1/RestoreV2_58/tensor_names"
  op: "Const"
  device: "/job:ps/task:2/device:CPU:0"
  attr {
    key: "_output_shapes"
    value {
      list {
        shape {
          dim {
            size: 1
          }
        }
      }
    }
  }
  attr {
    key: "dtype"
    value {
      type: DT_STRING
    }
  }
  attr {
    key: "value"
    value {
      tensor {
        dtype: DT_STRING
        tensor_shape {
          dim {
            size: 1
          }
        }
        string_val: "ps_2/Variable_7/Adam_1"
      }
    }
  }
}
node {
  name: "save_1/RestoreV2_58/shape_and_slices"
  op: "Const"
  device: "/job:ps/task:2/device:CPU:0"
  attr {
    key: "_output_shapes"
    value {
      list {
        shape {
          dim {
            size: 1
          }
        }
      }
    }
  }
  attr {
    key: "dtype"
    value {
      type: DT_STRING
    }
  }
  attr {
    key: "value"
    value {
      tensor {
        dtype: DT_STRING
        tensor_shape {
          dim {
            size: 1
          }
        }
        string_val: ""
      }
    }
  }
}
node {
  name: "save_1/RestoreV2_58"
  op: "RestoreV2"
  input: "save_1/Const"
  input: "save_1/RestoreV2_58/tensor_names"
  input: "save_1/RestoreV2_58/shape_and_slices"
  device: "/job:ps/task:2/device:CPU:0"
  attr {
    key: "_output_shapes"
    value {
      list {
        shape {
          unknown_rank: true
        }
      }
    }
  }
  attr {
    key: "dtypes"
    value {
      list {
        type: DT_FLOAT
      }
    }
  }
}
node {
  name: "save_1/Assign_58"
  op: "Assign"
  input: "ps_2/Variable_7/Adam_1"
  input: "save_1/RestoreV2_58"
  device: "/job:ps/task:2"
  attr {
    key: "T"
    value {
      type: DT_FLOAT
    }
  }
  attr {
    key: "_class"
    value {
      list {
        s: "loc:@ps_2/Variable_7"
      }
    }
  }
  attr {
    key: "_output_shapes"
    value {
      list {
        shape {
          dim {
            size: 10
          }
        }
      }
    }
  }
  attr {
    key: "use_locking"
    value {
      b: true
    }
  }
  attr {
    key: "validate_shape"
    value {
      b: true
    }
  }
}
node {
  name: "save_1/restore_all/NoOp"
  op: "NoOp"
  input: "^save_1/Assign"
  input: "^save_1/Assign_1"
  input: "^save_1/Assign_2"
  input: "^save_1/Assign_3"
  input: "^save_1/Assign_4"
  input: "^save_1/Assign_5"
  input: "^save_1/Assign_6"
  input: "^save_1/Assign_7"
  input: "^save_1/Assign_8"
  input: "^save_1/Assign_9"
  input: "^save_1/Assign_10"
  input: "^save_1/Assign_11"
  input: "^save_1/Assign_12"
  input: "^save_1/Assign_13"
  input: "^save_1/Assign_14"
  input: "^save_1/Assign_15"
  input: "^save_1/Assign_16"
  input: "^save_1/Assign_17"
  input: "^save_1/Assign_18"
  input: "^save_1/Assign_19"
  input: "^save_1/Assign_20"
  input: "^save_1/Assign_21"
  input: "^save_1/Assign_22"
  input: "^save_1/Assign_23"
  input: "^save_1/Assign_24"
  input: "^save_1/Assign_25"
  input: "^save_1/Assign_26"
  input: "^save_1/Assign_27"
  input: "^save_1/Assign_28"
  input: "^save_1/Assign_29"
  input: "^save_1/Assign_30"
  input: "^save_1/Assign_31"
  input: "^save_1/Assign_32"
  input: "^save_1/Assign_33"
  input: "^save_1/Assign_34"
  device: "/job:ps/task:1"
}
node {
  name: "save_1/restore_all/NoOp_1"
  op: "NoOp"
  input: "^save_1/Assign_35"
  input: "^save_1/Assign_36"
  input: "^save_1/Assign_37"
  input: "^save_1/Assign_38"
  input: "^save_1/Assign_39"
  input: "^save_1/Assign_40"
  input: "^save_1/Assign_41"
  input: "^save_1/Assign_42"
  input: "^save_1/Assign_43"
  input: "^save_1/Assign_44"
  input: "^save_1/Assign_45"
  input: "^save_1/Assign_46"
  input: "^save_1/Assign_47"
  input: "^save_1/Assign_48"
  input: "^save_1/Assign_49"
  input: "^save_1/Assign_50"
  input: "^save_1/Assign_51"
  input: "^save_1/Assign_52"
  input: "^save_1/Assign_53"
  input: "^save_1/Assign_54"
  input: "^save_1/Assign_55"
  input: "^save_1/Assign_56"
  input: "^save_1/Assign_57"
  input: "^save_1/Assign_58"
  device: "/job:ps/task:2"
}
node {
  name: "save_1/restore_all"
  op: "NoOp"
  input: "^save_1/restore_all/NoOp"
  input: "^save_1/restore_all/NoOp_1"
  device: "/job:worker/task:1"
}
versions {
  producer: 24
}
